data-generation/error_tagger/models/model_w_pos.pt (torch, 598660 bytes, 11 tensors)

embed_layer.weight f4 [90, 50]
000000 00 00 00 00 00 00 00 00 00 00 00 00 00 00 00 00
       0.0 0.0 0.0 0.0
000010 00 00 00 00 00 00 00 00 00 00 00 00 00 00 00 00
       0.0 0.0 0.0 0.0
000020 00 00 00 00 00 00 00 00 00 00 00 00 00 00 00 00
       0.0 0.0 0.0 0.0
000030 00 00 00 00 00 00 00 00 00 00 00 00 00 00 00 00
       0.0 0.0 0.0 0.0
000040 00 00 00 00 00 00 00 00 00 00 00 00 00 00 00 00
       0.0 0.0 0.0 0.0
000050 00 00 00 00 00 00 00 00 00 00 00 00 00 00 00 00
       0.0 0.0 0.0 0.0
000060 00 00 00 00 00 00 00 00 00 00 00 00 00 00 00 00
       0.0 0.0 0.0 0.0
000070 00 00 00 00 00 00 00 00 00 00 00 00 00 00 00 00
       0.0 0.0 0.0 0.0
000080 00 00 00 00 00 00 00 00 00 00 00 00 00 00 00 00
       0.0 0.0 0.0 0.0
000090 00 00 00 00 00 00 00 00 00 00 00 00 00 00 00 00
       0.0 0.0 0.0 0.0
0000a0 00 00 00 00 00 00 00 00 00 00 00 00 00 00 00 00
       0.0 0.0 0.0 0.0
0000b0 00 00 00 00 00 00 00 00 00 00 00 00 00 00 00 00
       0.0 0.0 0.0 0.0
0000c0 00 00 00 00 00 00 00 00 c9 2d 1f bf 17 d9 21 bf
       0.0 0.0 -0.6217924 -0.6322188
0000d0 55 4b a6 3d 5e a4 9d be 82 6a 3d 3f 5d dc 27 bf
       0.08119837 -0.30789465 0.73990643 -0.6557062
0000e0 1c 43 be 3e 6c ad 17 40 33 e6 c6 bf a4 76 8a bf
       0.37160575 2.3699598 -1.5539001 -1.0817456
0000f0 88 c3 48 bf c5 97 5d 3f dd 85 1f c0 6d 54 d7 bf
       -0.78423357 0.86559707 -2.4925454 -1.682264
000100 73 87 52 bf b1 a8 db 3f 0a e1 b9 bf 81 23 82 3f
       -0.8223793 1.7160856 -1.4521801 1.0167085
000110 f5 8e ac bf c7 c9 7a 3d 78 3a 4b 3e 3c bd 03 40
       -1.3481127 0.061227586 0.19846523 2.058425
000120 b0 29 eb 3e c8 bf a1 be 43 14 07 3e 38 29 00 40
       0.45930243 -0.3159163 0.13191323 2.0025158
000130 28 a2 85 3f 2e b1 90 3f 05 c7 1e 3e 02 09 72 3f
       1.0440111 1.1304071 0.15505607 0.94544995
000140 e0 a5 63 3e a1 91 9c 3e 8e 75 9c be 47 1a 1e c0
       0.22231245 0.30579856 -0.30558437 -2.4703538
000150 73 81 76 3f a1 46 6e bf f7 01 8c 3f f1 0c 8c bf
       0.96291274 -0.9307652 1.09381 -1.0941449
000160 02 79 0f bd 80 0a 48 3f 1a fc d2 3d 23 86 9c bf
       -0.03502751 0.7814102 0.10301991 -1.2228435
000170 63 46 9e 3e 6c b8 fe 3e a8 c5 8a bf 5f 12 94 3f
       0.30913076 0.49750078 -1.084157 1.1568106
000180 a7 42 41 bf c0 08 68 3e 33 f3 30 3f 3a ad 60 3f
       -0.7549233 0.22659588 0.6912109 0.8776432
000190 83 84 69 3d 86 14 80 be c3 96 cd bd 31 cc 90 3e
       0.05701114 -0.25015658 -0.10038521 0.28280786
0001a0 6e 16 e2 3f d6 0b 9b bd 26 00 88 be 43 36 cd be
       1.7663095 -0.07570617 -0.26562613 -0.4008046
0001b0 ed df 0b c0 e6 06 82 be 2e 0c 61 bf c1 7e 89 bf
       -2.1855423 -0.25395888 -0.8790921 -1.0741807
0001c0 8f 0f 25 3f d2 c9 13 3e e8 23 b3 3e e9 0f b9 3f
       0.64476866 0.14432457 0.34988332 1.445798
0001d0 f8 20 e7 bf 67 10 b5 3d 55 c1 09 c0 82 9b 49 3d
       -1.8056936 0.08841019 -2.152425 0.04922057
0001e0 28 36 a6 bd 85 61 e8 bf 6a ee ef 3e 4d 74 16 bf
       -0.08115798 -1.8154761 0.46861583 -0.5877121
0001f0 e2 b1 83 3f 59 3e a5 bf 57 9d c7 3d 27 7b 05 c0
       1.028866 -1.2909652 0.09746807 -2.0856416
000200 7c b3 ea 3e 52 9d f8 3e 52 67 23 3d 47 f7 37 bf
       0.4584006 0.48557526 0.039893456 -0.7186169
000210 2f a1 30 3f c4 e8 c0 bf ac 56 dd 3f 92 02 c4 3f
       0.68995947 -1.5071034 1.7292075 1.5313284
000220 47 92 ce 3f ee fe 37 bf 44 31 c8 bf bc b2 1e bf
       1.613839 -0.71873367 -1.5640035 -0.61991477
000230 6a c7 e5 3b dc 2f 9a bc fa 02 be bf b5 2a a2 be
       0.0070122974 -0.01882165 -1.4844658 -0.31673208
000240 36 b7 3d bf 86 fe a5 bf b2 a5 44 3f 15 f0 41 bf
       -0.7410768 -1.2968299 0.7681533 -0.7575696
000250 ec 8e 97 be b6 8e 8b 3e 99 a2 6f 3f 80 98 8d be
       -0.29601228 0.27257317 0.9360748 -0.2765541
000260 dd 1b 94 3f 3c 7f 34 3f fb 46 6b bf 5d f3 46 bf
       1.1571003 0.70506644 -0.9190518 -0.7771509
000270 90 e2 b2 bf 00 bf 22 3f c3 cf 78 bf c5 c9 7f 3f
       -1.3975391 0.6357269 -0.9719202 0.9991725
000280 eb ac 53 3f 78 f8 43 bf dc d2 ac 3e 68 3d d3 be
       0.82685727 -0.7655101 0.33754623 -0.41257787
000290 54 eb bf bf 8e 70 50 3f 39 18 02 40 c1 36 b6 bf
       -1.4993691 0.81421745 2.0327284 -1.423546
0002a0 d7 be 0c 3f 90 0b ac 3e d5 96 4e bf 3b 19 4a bf
       0.549787 0.3360257 -0.806989 -0.7894475
0002b0 a9 af 22 3f 84 b2 83 bf b6 bd 1f bf c9 c9 04 3f
       0.63549286 -1.0288854 -0.6239885 0.518704
0002c0 d4 6a a7 bc a8 a1 fc 3f 72 27 76 3e eb 7a 6d bf
       -0.020436682 1.9736834 0.24038485 -0.9276568
0002d0 df cf 86 bf 60 aa 6c 3f 1d ac 02 40 7a bb ef bf
       -1.0532187 0.9244747 2.041755 -1.8729088
0002e0 8b d3 b5 bf b3 9a a9 3f 2b 88 e1 be 29 8a 09 3e
       -1.4205183 1.3250335 -0.440492 0.1343161
0002f0 55 87 b6 3e e1 3f d8 3f e9 22 95 bf 56 3a af be
       0.35650125 1.6894494 -1.1651279 -0.34224194
000300 31 c3 90 3e 2a 19 81 bf c3 a6 43 c0 87 b6 b8 3e
       0.2827392 -1.0085804 -3.0570533 0.36076757
000310 43 6b 60 3f 55 5e 96 bf b5 91 5a 3f 55 25 ea bf
       0.8766367 -1.1747538 0.8537858 -1.8292643
000320 31 bc 16 bf 18 a0 0c 40 6e d8 2a 3e da 32 ba 3f
       -0.5888091 2.1972713 0.16684124 1.4546769
000330 1e 30 dc 3e 8f 11 b5 3f 9a fe 03 3f 52 c5 d9 bf
       0.4300546 1.4145983 0.51560366 -1.7013342
000340 9b 2b c6 bf ac 34 22 bd 65 9a c4 3e d4 34 7a bf
       -1.5482057 -0.039601013 0.38399044 -0.9773686
000350 c2 f1 b0 3f bb 8a da 3f 93 c7 7b 3f 1c 76 88 be
       1.3823779 1.7073587 0.983514 -0.2665261
000360 b5 9e b0 bf 8b 97 0f be ec e5 61 3f e2 46 e0 bd
       -1.3798434 -0.14022653 0.8824146 -0.1095102
000370 b4 8c c3 be 3c 6d 01 bf e5 c0 09 bf db 0c 82 be
       -0.38193285 -0.50557303 -0.5380996 -0.25400433
000380 6b 0b 1c bf 7a b6 bf 3f 42 67 1c be 4c 58 01 bf
       -0.6095492 1.4977562 -0.15273765 -0.50525355
000390 c8 f0 5f 3f 84 2b 09 3f 0c a1 68 bf f6 60 64 bf
       0.8747678 0.53582025 -0.9087074 -0.8921045
0003a0 c4 83 6a bd ef 20 a3 3f c2 06 94 3f 5c 91 ea 3e
       -0.057254568 1.2744426 1.1564562 0.45814025
0003b0 07 22 ad 3f 1d 6a 3c 3f 74 3d 74 bf 32 a7 d6 3f
       1.3526009 0.73599416 -0.9540627 1.6769774
0003c0 0b 1a 54 bd c6 e3 f0 3e 5b 4c a8 bd 20 7c 7d 3f
       -0.05178265 0.47048777 -0.08217689 0.99017525
0003d0 75 dd 0f be 86 4d 38 bf 70 39 41 3f 61 c2 a2 bf
       -0.14049323 -0.7199329 0.7547827 -1.271557
0003e0 53 98 d6 3f 0f c8 b8 be b2 80 0f bd 38 ba e2 be
       1.6765236 -0.36090133 -0.035034843 -0.442827
0003f0 da 54 da bf 23 91 ce be 76 77 ba 3f df e0 34 bf
       -1.7057145 -0.40345106 1.4567707 -0.70655626

rnn.weight_ih_l0 f4 [384, 50]
000000 f8 3c dd 3c 1c 56 4d 3d cd 84 07 be c4 ab d5 3d
       0.027006611 0.05013095 -0.13234253 0.10433152
000010 1e 99 11 3b 6a 87 fd 3c 1c f9 76 bd 1f c0 94 bd
       0.002221651 0.03094836 -0.060296163 -0.07263207
000020 0f 0c 35 3d 75 8b ef 3d b8 55 9a 3d f5 93 1e bc
       0.044200953 0.11696521 0.07535881 -0.00967883
000030 6e cd dc 3d ad be 85 3e 43 7a 65 ba 67 57 bf 3d
       0.1078137 0.26122037 -0.0008753875 0.093428425
000040 df 84 81 bd 06 db a9 bc f0 36 46 3a ed 04 9f bd
       -0.06324171 -0.020734321 0.0007561287 -0.077646114
000050 5e 1c c6 3d d6 9f 3c 3d f2 ac 8a bd 20 6b f7 3d
       0.09673379 0.04605087 -0.06771268 0.12080979
000060 b5 f3 8d 3d d6 e8 a7 bd 6d f9 a0 bd 49 ed 3c 3d
       0.06931249 -0.08198707 -0.07860074 0.04612473
000070 3a bb c2 bd d9 13 df 3c 5b dd ae 3c 0c 6e 2e 3d
       -0.09508367 0.027231144 0.021345785 0.042585418
000080 9e 81 33 3d 61 3f aa 3d 22 53 cf 3c 76 7d 9a 3c
       0.043824784 0.0831287 0.025308196 0.018858653
000090 6f bb 49 3d ec cb 88 3d 07 0f 1b 3e d4 5d 7d bc
       0.049251016 0.0667952 0.15142451 -0.015464265
0000a0 fa 8b 26 bd 61 e8 f5 bc 63 68 d6 3c 0b 9a e0 bd
       -0.040660836 -0.030018033 0.026172822 -0.10966881
0000b0 b3 f3 02 bd 09 d4 0e 3e 68 d3 4f bc 56 39 db 3d
       -0.03197069 0.13948072 -0.0126846805 0.10704295
0000c0 6b 08 45 3d bc 88 54 3d 8b b9 8b 3e f2 f0 5f be
       0.04810373 0.051888213 0.27289996 -0.21869257
0000d0 50 da 05 be 2b 66 ce bc 99 54 23 3e ee 9d 0d bd
       -0.13071561 -0.025195202 0.1595024 -0.03457444
0000e0 2a 16 43 3e 7f a7 d2 3d ed a8 fb bc 6f 7b 13 be
       0.19051424 0.102858536 -0.030720199 -0.14402555
0000f0 2b d5 e3 3d 04 bc 2e be a4 b2 cd bd d2 6d e5 3c
       0.11124643 -0.1706391 -0.100438386 0.028006468
000100 e0 2b 8d be 67 65 81 3d 6e a0 b5 3e 3a 31 86 bd
       -0.27572536 0.06318169 0.3547396 -0.06552358
000110 96 04 c2 bd ac 1a 28 3e 0b ad 2d 3e 54 e2 b1 3d
       -0.09473531 0.16416425 0.16960542 0.08685747
000120 6b d2 31 3e ca 9f 48 3e 82 64 49 bd c3 3b 17 3e
       0.17365424 0.19592205 -0.049168117 0.14768891
000130 4b c0 46 3e dd cf 08 be 8a 2d 2d 3e 8a 65 a3 bd
       0.19409291 -0.13360544 0.16911903 -0.079783514
000140 c8 ef fd 3d a8 1c 05 3e 9b 0b 2a be b8 e5 95 be
       0.1239925 0.12999213 -0.1660599 -0.29276824
000150 93 4d 1b 3d 5b 7f 20 3d 69 e3 e2 bc e3 ca 4c bd
       0.037915777 0.039183956 -0.027696328 -0.049998175
000160 67 44 5e be 29 4f 5e be 88 59 cc 3d 7c 6f 3f 3e
       -0.21705781 -0.21709885 0.09978014 0.18694872
000170 4c 7f 19 bd f0 1f 0f bd 09 06 4b be 1a 9a 0b bd
       -0.037474915 -0.034942567 -0.19826521 -0.03408251
000180 5b 29 6c 3e 67 ef 38 bd b8 24 68 bd a4 4e 0b 3e
       0.23062651 -0.045150187 -0.056675643 0.13604218
000190 ee 0e b7 3d 76 3b c5 bd 57 7c c9 3c 96 8b 06 3e
       0.089383945 -0.09630482 0.024595423 0.13139185
0001a0 5d f2 83 bd fa 34 a8 bd ef 2e 02 be 93 c2 be 3d
       -0.064427115 -0.082132295 -0.12713216 0.09314456
0001b0 f1 48 3f be 88 5a 02 3d 70 3d aa 3d ce 05 bc bd
       -0.18680169 0.03182462 0.083124995 -0.09180795
0001c0 cc 68 1e 3e a7 42 b6 bd 6d 9b 9c 3c 8b 2c 28 3c
       0.15469664 -0.08899432 0.019117082 0.010264526
0001d0 df 13 06 3d cb 56 89 bd 1f 07 86 3d 11 5e 12 bd
       0.032733794 -0.067060076 0.06544327 -0.03573424
0001e0 0e 40 d1 3d fb 5d 6e 3d 80 9e e9 3d 9b da 1b be
       0.102172956 0.058195096 0.114071846 -0.1522011
0001f0 3f f3 64 bd d3 77 72 be 70 fd ae bd a1 9e 87 3a
       -0.05589604 -0.23678522 -0.08544433 0.0010346958
000200 da f0 06 3e 2f e6 9b bd 27 bf 88 bd 73 a3 a9 bc
       0.13177815 -0.076122634 -0.066770844 -0.020707821
000210 28 b4 8c bc ae 8b 5f be c3 81 9e 3b c0 9b 1c 3e
       -0.017175749 -0.21830627 0.004837246 0.15293789
000220 7a f0 af 3d fd 2b a9 3d f7 a6 8d 3d 06 b9 cc 3d
       0.08590789 0.08260343 0.06916612 0.09996228
000230 cc 4e 9b 3d 52 9a d5 bd 36 47 cc 3d d1 95 ac 3d
       0.07583389 -0.10429825 0.0997452 0.08427013
000240 a6 d0 7f be 29 db 1a bd cd fe 0c 3e bd dc 00 be
       -0.24981937 -0.037806664 0.13769074 -0.12584205
000250 0f 34 77 3e 1d fe ce bd 5f 3a cb 3c af 07 eb 3d
       0.24140953 -0.10107062 0.024808107 0.11476075
000260 63 b8 5b be 7e 49 b7 3d 3b 0d c8 3d 3f f7 92 3e
       -0.21457057 0.089495644 0.097681485 0.2870426
000270 71 dc 93 3e 0f 70 a2 bd bb 1a 02 be d2 17 06 be
       0.2887912 -0.0793153 -0.1270551 -0.13095024
000280 ef 5c f2 3d 92 82 f6 bd e8 d5 c4 bd e1 33 bf 3d
       0.11834132 -0.12036623 -0.09611112 0.09336067
000290 cc b6 9e 3d 0c 61 d9 3e 0a d0 33 3e 06 b8 9d be
       0.077497095 0.42456853 0.1755983 -0.3080446
0002a0 a4 0c 83 3d dd f8 65 3d 7a ec 14 bd 84 96 1d 3e
       0.063988954 0.056145538 -0.036358334 0.15389448
0002b0 26 38 72 3d 43 ee ac bc 57 d3 26 bd 01 ad 56 3e
       0.05913558 -0.021109706 -0.040728893 0.20964433
0002c0 1c 39 18 3d a2 9b 01 bd a2 cb b9 3e 08 5c 84 3e
       0.03716384 -0.031642564 0.36288172 0.25851464
0002d0 84 a1 86 bd fd 3f 82 bb 8e c7 ad bd 8c fa 6e 3d
       -0.065737754 -0.003974913 -0.08485328 0.05834441
0002e0 37 a2 ef 3d ac 91 58 3c 9c c6 28 3b 69 83 88 be
       0.11700862 0.013218325 0.0025753146 -0.26662758
0002f0 9d c0 d5 3d ee 46 0d 3e 85 8c 18 be 94 a2 02 bd
       0.10437129 0.13796589 -0.14897354 -0.031893328
000300 66 77 b2 3d a8 78 5c bd f2 64 43 3d 06 b7 31 3e
       0.0871418 -0.053826004 0.04770369 0.17354974
000310 b7 b3 80 3d 89 48 88 3d 63 08 4b 3e 99 59 c8 3d
       0.06284278 0.0665446 0.19827418 0.097827144
000320 62 4d 0e 3e 7b be b6 bd ff 52 23 bd ec bd d7 bd
       0.13896707 -0.0892305 -0.039874073 -0.105342716
000330 68 a3 b8 bd ed 84 90 bd b2 e0 50 3d b7 a9 e9 3d
       -0.09015542 -0.070566036 0.050995536 0.11409324
000340 a7 82 9b be 7b 1a 76 be a4 a5 cf 3d e1 99 82 3e
       -0.30373117 -0.24033539 0.10139015 0.25508025
000350 29 f0 ab bd 70 a4 b7 3d d3 45 6c be 1e 10 df bd
       -0.08395416 0.08966911 -0.23073511 -0.10891746
000360 53 cc 0a be cf 29 60 bd 12 3f bd 3d 2c 8a 35 be
       -0.13554506 -0.05472737 0.09240545 -0.1772849
000370 9d 57 68 3e 3c f1 0e bd 3f 6f 90 bd 63 f1 0a 3d
       0.22689672 -0.034898028 -0.070524685 0.03392161
000380 ba 73 bc bb 69 c0 41 3e 80 05 be 3d 3f a0 6e bd
       -0.0057511004 0.18921055 0.09278393 -0.05825829
000390 6d d9 0e 3e a5 19 86 3e 0b 44 d1 3e d6 fc d8 bb
       0.13950129 0.2619144 0.40872225 -0.0066219373
0003a0 40 9d 95 be f4 1f 69 be d1 bd 48 3d df e5 11 be
       -0.29221535 -0.22766095 0.049009148 -0.14247845
0003b0 ae 54 a2 bd 2b 5c 88 be 56 66 7a bd df 5f 26 3e
       -0.079263076 -0.2663282 -0.06113275 0.1624751
0003c0 02 98 e1 bc e9 ea 40 bd 72 d2 53 3e 80 71 df 3d
       -0.027538303 -0.047099028 0.20685747 0.1091032
0003d0 fa 70 b6 3d 8b a2 98 3d 46 4f 1c be fb 28 4a 3d
       0.08908267 0.074528776 -0.15264615 0.04935549
0003e0 a9 bc 6a 3e 50 8b b1 3c ba 8d b8 bd ea 84 51 bc
       0.2292353 0.021672875 -0.09011407 -0.012788037
0003f0 35 d4 c5 bd a6 1b 7d 3d 66 bf 30 3d 26 7e 05 bd
       -0.09659616 0.061793946 0.04315128 -0.032591008

rnn.weight_hh_l0 f4 [384, 128]
000000 72 1c 28 be af e3 a4 bc ca 42 97 3d f8 f3 e9 3d
       -0.16417101 -0.0201281 0.07385786 0.114234865
000010 f3 04 6b bd b7 20 6b 3e 49 a8 b3 3c 04 11 83 3e
       -0.057377767 0.22961698 0.02193083 0.2559892
000020 8b 27 30 bd fb 47 f3 bd c4 ae 04 3e d1 be 14 3e
       -0.04300646 -0.118789636 0.12957293 0.14525916
000030 5d 2c a3 3d ba e1 27 be 1a d7 dc bd 98 d9 9d be
       0.07967446 -0.16394702 -0.10783215 -0.30830073
000040 e1 0b 27 bd a6 73 03 3e 9e ad 34 be f5 57 63 bc
       -0.040782813 0.12837085 -0.17644355 -0.013875951
000050 75 8d e3 3b 02 82 06 3e 18 54 34 3e af 25 af 3c
       0.006944353 0.13135532 0.17610204 0.021380274
000060 cf 94 60 3e 0f 7e 0a 3e 56 98 38 be bf 1d 00 3e
       0.21931766 0.1352465 -0.18026862 0.12511347
000070 92 5c 32 be 66 91 b8 3d 6e 37 40 be 69 7d 96 bd
       -0.17418125 0.090121076 -0.18771145 -0.07348139
000080 09 c8 4a 3e 5f 68 09 3e da 4d 76 3e 33 fe 5d 3e
       0.1980287 0.1341872 0.24053136 0.21679
000090 00 2f c0 3c a4 0a 00 be d3 77 91 bd 02 7e e8 3d
       0.023459911 -0.12504059 -0.07102933 0.11352159
0000a0 86 59 54 be 95 ce b7 bd 13 dd 6e be 66 55 1f 3e
       -0.20737275 -0.08974949 -0.2332652 0.1555992
0000b0 79 d9 b0 bd 07 19 de 3d 30 a0 2a be 54 3c 18 3c
       -0.086352296 0.10844617 -0.16662669 0.009291727
0000c0 79 35 1f be ae 71 e6 3d 92 30 4f be fe ae 24 3e
       -0.15547742 0.112521514 -0.20233372 0.16082379
0000d0 73 ff 44 3d 5d ef 04 3d 23 4a 84 3d 73 ed 00 3e
       0.048095178 0.032454837 0.06459453 0.1259058
0000e0 c1 23 89 be 2a 7f 80 be ac 35 bd 3d f6 0e ba 3c
       -0.2678509 -0.25097018 0.09238753 0.022712212
0000f0 c1 6a 0e be 75 d7 45 3d 7f bc 32 bb c4 31 db bd
       -0.13907911 0.04830118 -0.0027272997 -0.107028514
000100 44 22 2c 3d 29 5d b8 3d ac 0b 92 be a9 6c 8f bd
       0.042024866 0.09002144 -0.2852453 -0.07003147
000110 f4 2d 25 3e f1 75 a6 3c a6 fe a2 bd 55 49 d8 bd
       0.16130811 0.02031991 -0.079587266 -0.10560862
000120 c8 be 2a 3e 25 fe 88 3e a3 fa 6b bd 47 46 c8 bc
       0.1667434 0.26756397 -0.057612073 -0.024447573
000130 e3 01 0d 3e a9 6d 50 3e eb 43 3e 3d c1 b0 68 be
       0.13770251 0.20354332 0.04645149 -0.22723676
000140 97 2e 67 be a2 0a c1 3d c2 95 1d be d9 b7 f0 3d
       -0.22576366 0.09425856 -0.1538916 0.11753816
000150 92 83 4d 3e cb 78 87 bb ec 49 79 be 0b 19 fb bd
       0.20069721 -0.0041342727 -0.24344605 -0.12260636
000160 49 ec e3 3d c6 72 ce bd 6e 43 00 3e 8b 61 02 3d
       0.11129052 -0.10080485 0.12525722 0.031831305
000170 59 70 12 be bc cf cf bd 9e 0e 8d bb 4d 74 99 3d
       -0.1430067 -0.10147044 -0.004304721 0.07492886
000180 94 f1 0f 3e ba f0 32 bd 2c 00 ac be 2f ce ce bd
       0.14056998 -0.043686606 -0.3359388 -0.1009792
000190 87 9f 9c be cb 03 19 3e b7 a0 52 3e d4 89 90 3d
       -0.3059046 0.14942853 0.2056912 0.07057539
0001a0 fd 7e 1c bb 67 60 4b bd d1 08 1a 3e 49 01 23 3d
       -0.0023879402 -0.049652483 0.15042426 0.039796147
0001b0 75 80 8d bc 2a 5a 22 bc fb 1c c0 3e 60 f7 2d be
       -0.017273167 -0.009909192 0.3752211 -0.16988897
0001c0 41 79 46 3d ee 30 6f 3e 0e 94 7c 3d d9 82 b1 bd
       0.04845548 0.23358509 0.061664633 -0.08667535
0001d0 12 e6 55 bd c1 ba 83 bc c1 a9 aa bd a9 c6 e6 3d
       -0.052221365 -0.016080262 -0.08333159 0.1126836
0001e0 ad a6 15 3e a1 85 bc 3d 4d 96 83 3d a9 e4 11 3d
       0.14614363 0.09205175 0.06425152 0.035618458
0001f0 d1 25 dc 3c 2b 6c 16 3d f7 2a 0d 3c 3a 35 8c bd
       0.026873501 0.03672425 0.008616201 -0.0684609
000200 9d 3f f2 bd 8a e2 6f 3d a0 e5 08 bd 3f 05 50 3d
       -0.118285395 0.058565654 -0.033422112 0.050786253
000210 16 e7 0a 3e a9 8a 52 3d e0 ee 38 3d 46 da dd bd
       0.13564715 0.051401768 0.045149684 -0.10832648
000220 b4 69 ea bd 9b 59 13 be c5 f3 9f 3d c1 60 be be
       -0.114459425 -0.1438965 0.07810167 -0.37183192
000230 a9 a1 1c 3e d8 a5 2d 3d 96 96 48 bd 52 9e 01 be
       0.15296043 0.04239449 -0.048971735 -0.1265805
000240 0b 6a 81 be 15 09 88 be 09 47 00 3e e8 3e 98 bc
       -0.25276217 -0.2656943 0.12527098 -0.018584684
000250 d6 1c ee bc 19 97 96 3c f5 ff e2 3c bd 10 d5 bd
       -0.029066484 0.018382596 0.02770994 -0.10403583
000260 21 60 16 be 00 5d 91 3b 4f d2 75 bd 73 fa 1b bc
       -0.14685108 0.0044361353 -0.06001502 -0.009520161
000270 3f 02 f0 3b 02 ef 19 b9 b7 3f ed 3a dd 23 51 be
       0.0073244865 -0.00014680254 0.0018100654 -0.20423837
000280 5d e0 66 3c c7 21 31 3e 67 a0 6a bc 17 fa 1d 3c
       0.014091578 0.17298041 -0.014320469 0.009642146
000290 b8 4d 05 be 9a e8 e1 3c 89 a2 39 be 76 bd 6c bc
       -0.13017929 0.027576733 -0.18128408 -0.014449468
0002a0 81 9a b5 3d 22 72 0b 3d 7b 6d ba 3d 81 b6 81 3c
       0.0886736 0.034044392 0.09102913 0.015834095
0002b0 d2 d0 1c 3e 92 31 e6 3b cd fa 06 be de 7e 0a 3d
       0.15314034 0.007024952 -0.1318161 0.033812396
0002c0 49 d5 ab bd 3c 21 80 3d 25 a3 cd bc 6e a8 8d bd
       -0.0839029 0.06256339 -0.025102207 -0.06916891
0002d0 81 87 8e bc 2a 0f 05 3e ef b1 0b bd 01 9d 5f be
       -0.017398598 0.12994066 -0.034105238 -0.21837236
0002e0 cd da 27 3b c8 dc 04 be 4c f1 8b bd 34 d2 8d 3d
       0.0025612593 -0.12974846 -0.06833133 0.06924859
0002f0 5b 0a 29 be 3d 22 ca 3b e3 62 e3 bc bc c4 13 bc
       -0.16507857 0.0061686323 -0.027757114 -0.009019073
000300 07 05 d0 3c 24 da e8 3d 4d 18 0e bc 22 90 5f be
       0.025393022 0.11369732 -0.008672786 -0.21832326
000310 45 9e 04 bd 21 26 0a 3e 1c 3e bb bd cc c0 48 3e
       -0.0323775 0.13491108 -0.09142706 0.19604796
000320 b1 fa ab 3d 35 1b 24 3e 83 77 bc 3c 30 d7 34 be
       0.08397425 0.16026004 0.023006206 -0.17660213
000330 7f 45 0d 3e c5 11 9b 3c f5 28 6f 3d ad b1 8a bd
       0.13796042 0.018929372 0.05838867 -0.0677217
000340 7c f4 37 3e de cc c6 3d 96 56 2a be ce 87 14 bd
       0.17964357 0.09707044 -0.16634592 -0.036262326
000350 11 9b 7d 3d c5 bb 5f 3b a9 b3 0a be 59 d4 98 bc
       0.06191546 0.003413902 -0.13545097 -0.018655943
000360 bb 17 b2 3d c7 b7 56 3e 6e 93 37 3d a3 59 9a 3c
       0.086959325 0.20968543 0.044818334 0.01884157
000370 ca 33 dd bd 27 ce ec 38 ec 5d 8b 3e 8e 29 6c 3d
       -0.108008936 0.00011291756 0.27220094 0.057656817
000380 1f 44 af bd 59 fc 8e 3d b2 44 97 bd 17 46 e0 bb
       -0.08557915 0.06981725 -0.073861495 -0.006844293
000390 c3 41 85 bd 2c ab 1d 3d 86 50 83 be 46 7c df bd
       -0.06506684 0.03849332 -0.25647372 -0.10912375
0003a0 0a f4 e3 3d e3 db b6 bc e8 34 a0 3d 79 91 a8 3d
       0.11130531 -0.022321647 0.07822591 0.08230872
0003b0 05 84 f8 3d 35 1a 46 3d 83 e7 93 bc 30 59 cf 3d
       0.12134556 0.048364837 -0.01805473 0.10124433
0003c0 39 04 5b 3d 0e fe 58 bd 2b 2e 64 be 21 90 81 3c
       0.053470824 -0.05297666 -0.22283237 0.015815796
0003d0 56 3d d1 bd 21 dd ce bb fa 23 e9 bd 71 eb 08 be
       -0.10216777 -0.0063129817 -0.11383815 -0.13371064
0003e0 51 89 06 be 34 04 43 3e ee 8c c0 3a ad 1d 94 bd
       -0.1313832 0.19044572 0.0014690438 -0.07232223
0003f0 06 9f 24 be b9 b6 ff 3d 4d 8c 0e be c2 60 8f bc
       -0.16076288 0.124860235 -0.13920708 -0.017502192

rnn.bias_ih_l0 f4 [384]
000000 b4 09 48 3e 9c 26 b9 3d 3c c1 6b 3d bd 9b 29 3e
       0.19534951 0.09040567 0.05755733 0.16563316
000010 9b 47 83 bd e6 30 55 3d 82 cd ec 3c 65 ff 6f bd
       -0.06410142 0.052048586 0.028906588 -0.058593173
000020 a1 22 ec ba fd 32 8c 3d 0e b2 ef bd d7 9f 96 3c
       -0.0018015691 0.06845663 -0.11703883 0.018386764
000030 29 bc 15 3d 44 59 77 3d 43 4f f0 3c 47 74 59 bd
       0.036556397 0.060387865 0.02933467 -0.053089406
000040 78 a8 0e 3e 98 bb 82 bc ef 3c 8b 3d 7e 4e 37 bd
       0.13931453 -0.015958592 0.067987315 -0.04475259
000050 7e 30 cd 3d ce d0 c0 bd 56 1c 2a 3d 41 c5 5e 3d
       0.10019015 -0.09414826 0.04153093 0.054387335
000060 44 38 15 3e ee 48 bc 3d 3e 51 86 3d 34 72 50 3d
       0.14572245 0.09193598 0.065584645 0.050890163
000070 db 57 28 3c 3a 05 a4 3d 61 c7 56 3d d8 70 12 3e
       0.010274853 0.080088094 0.052436236 0.14300859
000080 dc 14 94 bb 4e d0 28 bc 5e 9f 94 3d 23 f6 e2 3c
       -0.004519088 -0.01030357 0.072569594 0.027705258
000090 1e e8 7e bc f3 8b 19 3e 8a 0c 0c 3e 41 8f 0c 3e
       -0.015558271 0.14994793 0.13676658 0.13726522
0000a0 83 4a 01 3e 45 a3 0e bc 98 1a 35 3d 0b 49 99 3d
       0.1262608 -0.008705919 0.044214815 0.07484635
0000b0 6f 57 a6 3d b2 9f 25 3e 5f cb ad 3d d4 a1 30 bb
       0.081221454 0.161742 0.084860556 -0.0026951926
0000c0 5b 97 ab 3d 77 81 01 3e 10 f7 f9 3d da 1b 7a bd
       0.08378478 0.12647043 0.122053266 -0.061061718
0000d0 9c c8 24 3c e0 5f f5 3d c4 21 25 3d b1 59 5d bd
       0.010057595 0.11981177 0.040315405 -0.054040615
0000e0 d9 f9 e2 3d 6f f7 cf 3d b0 12 29 3e 5b f5 53 bc
       0.11082811 0.10154616 0.16511035 -0.012936915
0000f0 6c ad e9 3d 92 22 a8 3d bd 46 27 3e 0e c6 0b 3e
       0.11410031 0.08209719 0.16335578 0.1364977
000100 5a 9e df 3d ca 12 fc bc 86 f3 10 3d 5b ed 1b 3e
       0.10918875 -0.030770678 0.035388492 0.15227263
000110 8e 41 19 3e e3 a5 58 3e 85 2b 10 3d fe 31 cb 3d
       0.14966413 0.21157031 0.035197753 0.09921645
000120 d1 db 0c 3e 04 fa d9 bc 55 6c 2c 3e 6c b1 9b bb
       0.13755728 -0.026608475 0.168382 -0.004751375
000130 79 b8 2b 3e 68 7c 7d 3c 9f 59 8e 3c e0 0a 14 bd
       0.1676959 0.015471555 0.017376719 -0.036143184
000140 df e5 30 3d cb a9 73 bc 5e c4 8c 3d ea 0e fc 3c
       0.043187972 -0.014872025 0.068733916 0.03076883
000150 c0 99 56 3d fd e3 ae 3c 0e 42 02 3e 54 ba 09 3e
       0.05239272 0.021348948 0.1272051 0.13449985
000160 6e 75 bc 3c ca de d8 3d b2 88 f8 3b a6 fe 61 3e
       0.023005214 0.10589369 0.0075846547 0.22069797
000170 8c ce 43 3d 3f ac ef 3d 1a 5e 5d bd cb 31 72 3e
       0.0478044 0.11702775 -0.05404482 0.23651807
000180 03 6f dc bc b7 d2 84 3d 31 16 17 3e de e5 2c 3e
       -0.026908403 0.06485503 0.14754559 0.16884562
000190 4e 24 87 3d 60 46 f1 3d c5 87 1d 3d ae 6b b5 bc
       0.065987214 0.11781001 0.038459558 -0.022146072
0001a0 31 e5 32 bc ee 78 af 3d d4 76 eb 3d 6b 3a 0d 3e
       -0.010918901 0.085679874 0.11497274 0.13791816
0001b0 d7 69 b0 3d ab 35 8c 3d af a7 f4 bd af f0 a2 3c
       0.08613937 0.06846174 -0.119460456 0.019890158
0001c0 b9 64 84 3d 86 10 96 ba 80 4f 94 bd 11 79 ef 3d
       0.06464524 -0.0011449016 -0.07241726 0.116930135
0001d0 6f 56 88 3d 0a 0d d1 bc bd c5 84 bd a7 ad c4 3d
       0.06657111 -0.025518913 -0.06483028 0.09603434
0001e0 24 20 d6 3d 55 54 3e 3e 57 52 08 bc d9 df eb 3d
       0.10455349 0.18586858 -0.008320413 0.11517305
0001f0 f1 6f 44 3d c6 45 1c 3e 98 21 d1 bc 19 44 0e bd
       0.04795832 0.15260991 -0.025528714 -0.03473291
000200 7c c4 0c be c7 08 b3 bd 41 2f 38 be 1b a2 54 be
       -0.13746828 -0.087419085 -0.17986776 -0.20764963
000210 0b c7 9b bd 0b 46 18 bb fc 44 7d bc 0e 9e a9 bd
       -0.07606324 -0.0023235108 -0.015458342 -0.082821
000220 4f 51 b9 bc e9 2b f7 3b b2 78 e3 bd d1 80 94 3d
       -0.022621779 0.0075430763 -0.11107005 0.07251132
000230 67 7f 00 bd 74 e7 be bd 29 38 ab bc d0 79 2c bd
       -0.0313715 -0.0932149 -0.020900803 -0.042108357
000240 d9 83 d4 bc 8c bd bc 3d 86 cf 71 be 48 fe 86 be
       -0.025941776 0.09215841 -0.2361432 -0.26365876
000250 fd fa 0e be e3 e3 cd bc e2 ad 95 bd fd e9 12 be
       -0.13962932 -0.025133079 -0.07308556 -0.14347072
000260 4f 07 29 be c8 1e 96 3b f1 03 e0 bd 7f 7d d9 bd
       -0.16506694 0.004581306 -0.10938252 -0.106196396
000270 cd 0d 5f bd 18 fa 46 bd 7a df 53 be 79 2f 33 be
       -0.05445652 -0.04857835 -0.20690718 -0.17498578
000280 ea 45 18 bd 8c 5c 3a be 2e 1c 95 bd 8f c4 0b bd
       -0.03717605 -0.18199366 -0.072807655 -0.034123
000290 e8 30 2f be cf 71 d1 be 9d 8a 06 be 44 c0 05 bd
       -0.171085 -0.40907142 -0.13138814 -0.032654062
0002a0 78 8e e6 bd 11 9c ce bd ae 12 ab 3c 94 59 a3 3a
       -0.112576425 -0.10088361 0.02088293 0.001246261
0002b0 02 08 d8 bd c1 69 cc bd 79 4f db bb 46 76 2e bd
       -0.10548402 -0.099811085 -0.0066928235 -0.042593263
0002c0 a7 84 e2 3d 23 75 bd bd c2 29 0f be 11 7c 42 3a
       0.11060458 -0.09250858 -0.13980773 0.0007419
0002d0 30 b3 3f be d2 2a e3 bd 8d 46 b2 bd 43 b5 7d bc
       -0.18720698 -0.11092152 -0.08704863 -0.015485111
0002e0 01 36 85 3d d5 09 5f bd f4 ed 14 be ba 01 04 be
       0.06504441 -0.054452736 -0.14543897 -0.12891284
0002f0 2e c4 27 be b2 32 2e bd e2 ea 8b be f4 dd f1 bd
       -0.1638343 -0.042528816 -0.2732764 -0.11809912
000300 4b c9 7e 3d 1c 99 a6 bd a5 72 74 bd 4f 8c b5 bd
       0.062203687 -0.08134672 -0.059679646 -0.08864652
000310 fc b2 a9 bd 6d ab 56 bc c7 7b 1e be 38 3b 32 be
       -0.08286092 -0.0131023945 -0.15476905 -0.17405403
000320 fa 35 d4 bd 4e 94 e9 bd bf 11 3e be 74 ce b7 bd
       -0.10361858 -0.1140524 -0.18561457 -0.08974925
000330 5f 9e 2b be 4a 9f 76 3d b9 32 0a be ac 38 71 be
       -0.16759633 0.060210504 -0.13495912 -0.23556775
000340 64 a8 85 bd 41 ce ec 3b f1 e1 2d be 03 ee 8f bd
       -0.065262586 0.007226736 -0.16980721 -0.07027819
000350 16 a7 98 be fd 67 14 be 18 36 1c be 4c 36 29 be
       -0.29814976 -0.14492793 -0.1525501 -0.16524619
000360 fb 28 1a bd 4f 39 fb bd bc 0d 95 bd 27 ca 2d be
       -0.03763674 -0.1226679 -0.0727801 -0.16971646
000370 05 bb 53 be 90 e2 b2 bc 07 53 9c bc 5f 48 42 be
       -0.20676811 -0.021836549 -0.01908256 -0.1897292
000380 5f 28 42 bd 73 d3 2b 3d 44 95 15 bd 5f c4 25 be
       -0.047401782 0.0419497 -0.036519304 -0.16188191
000390 7f 09 7f 3c ae ca 9f bd 92 c3 b4 3c d3 db f2 3c
       0.015566229 -0.0780233 0.022065911 0.029645836
0003a0 65 19 5d be 55 24 ba bc 66 67 09 be 71 8f 06 bd
       -0.21591718 -0.022722403 -0.1341835 -0.03285164
0003b0 3a b2 4a be 6c bc f1 bd 44 12 40 be 54 35 df bd
       -0.1979455 -0.11803517 -0.18756968 -0.108988434
0003c0 4a 67 0c be 10 71 4c be d5 7e 13 bd 5a ba b0 3c
       -0.13711277 -0.19965005 -0.03600963 0.021573234
0003d0 c6 d5 f6 bd 1b 33 04 be 9f 8a 35 bd c3 48 69 be
       -0.12052493 -0.1291012 -0.044321653 -0.22781663
0003e0 88 76 88 be c3 7a 98 be 7b c4 10 be 24 b5 8c be
       -0.26652932 -0.2978116 -0.14137451 -0.2748195
0003f0 cf bc 7a be 36 97 b1 bd 4d f7 95 3d 6e 67 14 be
       -0.24486087 -0.08671419 0.073225595 -0.1449258

rnn.bias_hh_l0 f4 [384]
000000 49 d2 b4 3d 9b 81 be 3c 42 9f 04 3e a3 5f 68 3e
       0.08829171 0.02325516 0.12951377 0.22692733
000010 4c 91 dc bc 9e 12 a5 3d a5 ff a9 3d 16 8a 7c 3d
       -0.026924752 0.080601916 0.083007134 0.061655127
000020 db 83 3e 3d 8d 15 9b 3d 33 b4 76 3c e0 8f af 3c
       0.046512466 0.0757247 0.015057611 0.02143091
000030 79 11 de 3d 89 6d 4f 3b d0 58 40 3c 8b 9b 80 3c
       0.108431764 0.0031650981 0.011739925 0.015699169
000040 8f 16 7d 3d b5 8b 3f 3d 8d 5c 69 3d de e3 b3 bd
       0.06178909 0.046764094 0.05697303 -0.087836966
000050 0a 6e 23 3e f0 80 8a 3d ae 2a 94 3d 0d b4 d4 bb
       0.15959945 0.06762874 0.07234703 -0.0064911903
000060 83 3b f4 3d 0a 3d 02 3e e9 12 80 bd 76 8d 08 3e
       0.119254135 0.12718597 -0.06253607 0.13335213
000070 9a 96 83 3d f7 17 55 3d 5d 8e 7c 3d 79 77 9b bc
       0.06425209 0.052024808 0.061659206 -0.018977867
000080 99 ee 71 bb 79 14 58 bc 7e ea e7 3d 4d 64 8b 3d
       -0.0036915897 -0.013188475 0.11324023 0.0680624
000090 c0 eb 93 3d c3 85 96 3c 98 b7 04 3e 5b 64 4f 3d
       0.072227 0.01837433 0.1296066 0.050632816
0000a0 15 af 5d 3e 70 9e ed 3c 82 ad 2b 3c ee 76 2a 3e
       0.2164882 0.029006213 0.010478379 0.1664693
0000b0 a1 0a 1d 3d 5e bf 4e 3e b1 e3 c0 3d 9d dd 91 3d
       0.038340215 0.20190188 0.09418429 0.071223475
0000c0 00 eb 17 3e b0 d3 82 3d 30 23 29 3d 8e 6c 63 3d
       0.14835739 0.063880324 0.041293323 0.055523448
0000d0 91 9e cd 39 4d a9 19 3d 24 80 88 3d 0e 2e c2 3d
       0.00039218788 0.037514973 0.06665066 0.094814405
0000e0 5a 43 a2 3d 3d ef 3b bd c1 12 ba 3d 40 54 ec bc
       0.079230025 -0.045882452 0.09085608 -0.028848767
0000f0 2f af 30 3e cf 05 d8 bb a2 43 06 3e 43 a7 1c 3e
       0.17254327 -0.0065924893 0.13111737 0.1529818
000100 a3 15 3c ba 79 fa 35 3d 12 b4 12 3e 9c db 29 3b
       -0.0007174855 0.044428322 0.14326504 0.002591825
000110 bd 6e 46 3d ec e4 1e 3e 7f ce 41 3c cd e0 5d 3d
       0.048445452 0.15517014 0.011829018 0.054169465
000120 48 cf de 3c 1a 89 8e 3c 28 ed 1e 3e 52 15 2c bd
       0.027198449 0.01739936 0.15520155 -0.04201252
000130 75 f2 80 3d 14 58 93 3d 25 60 34 3c 8b b2 6d bc
       0.06296245 0.07194534 0.011009251 -0.0145079
000140 be 45 6c 3d ae 41 88 3d f5 ea 53 bd 96 87 e7 3d
       0.0576837 0.066531524 -0.051737744 0.11305158
000150 fb b0 a6 3c e4 7a 7d 3d 69 92 39 3d 18 63 68 3e
       0.020348063 0.061884776 0.045305643 0.22694051
000160 b4 76 84 3d dc c8 95 3d 85 a9 76 3d 1a fb 82 3d
       0.06467953 0.073137015 0.06022026 0.0639555
000170 18 05 e2 3d fc a2 2f 3e 60 ac 51 bd 1c db 09 3e
       0.11036128 0.17152017 -0.05118978 0.1346249
000180 cf 31 e2 3d 57 06 36 bc 27 cc 0c 3e ec 67 6a 3e
       0.110446565 -0.01110991 0.13749753 0.22891206
000190 4b 7c 64 3b 70 08 1e 3e f9 33 23 3e 8d 76 09 bd
       0.0034864123 0.15432906 0.15937795 -0.033560324
0001a0 98 2c 1f 3e ea 55 e5 3d 6f ed 96 3d e5 f3 04 3e
       0.15544355 0.111980274 0.073695056 0.12983663
0001b0 fc 30 2c 3c a5 ea 0e 3e a1 8b 05 bd 5f b0 7e bc
       0.010509726 0.13956697 -0.032603864 -0.01554498
0001c0 83 e2 ba 3d 91 6d 10 3d e9 55 ad bd 90 b3 56 3d
       0.09125235 0.03526074 -0.08463652 0.052417338
0001d0 67 cc f5 3d 16 cf ba 3d d8 8c 9d 3c 1a b7 83 3d
       0.12001877 0.0912153 0.019232199 0.06431408
0001e0 aa 8a dd 3d 75 c7 4d 3e a3 85 ef bb d9 71 7e 3d
       0.10817464 0.20095618 -0.007309632 0.062120292
0001f0 43 07 04 3e 65 74 de 3d 10 ce 26 bd 20 07 3f 3d
       0.12893395 0.10862044 -0.04072386 0.046637654
000200 90 4b 13 be be 04 ea bd f4 24 ad bd 07 e0 23 be
       -0.14384294 -0.11426686 -0.08454314 -0.16003428
000210 95 7b 8f bd 7d d8 37 3c 16 ac ea bd 3c c7 05 3d
       -0.07005993 0.011221048 -0.11458604 0.032660708
000220 35 73 2c bc cb 91 8d 3d 75 93 24 bd 98 15 3d bd
       -0.010525514 0.069125734 -0.04017969 -0.04616317
000230 50 db 9c bd 4a f9 b2 bd 7f 29 27 bd 7d c4 e9 bd
       -0.07659018 -0.08738954 -0.040811058 -0.1141443
000240 e8 d5 59 3d 9d 2f 5c 3d 90 6e b3 bd 06 11 6e be
       0.053182513 0.053756345 -0.087613225 -0.23248681
000250 53 66 e9 bd 79 9f 06 be 77 bc 90 3c 66 b4 6c be
       -0.1139647 -0.13146771 0.017667992 -0.23115692
000260 cf d3 30 be 38 b3 e8 bd 24 11 db bd 9f 97 4f be
       -0.17268299 -0.11362308 -0.10696629 -0.20272683
000270 c3 e5 4b be 63 0a 1f be 9c 02 57 be b7 ea 11 be
       -0.19911866 -0.15531306 -0.20997089 -0.14249693
000280 69 5e c0 3b 08 71 18 be 7b 7d c4 bd 26 19 dc bd
       0.0058706296 -0.14886868 -0.09594246 -0.10746984
000290 d2 af 7b be d6 cb 8a be 00 73 06 be 7a dd 55 bd
       -0.24578789 -0.2710864 -0.13129807 -0.05221317
0002a0 6a a9 25 be 43 09 91 bd 6b 6e 59 3b 7d 42 e5 bd
       -0.16177908 -0.07081845 0.0033177387 -0.11194322
0002b0 dd cb d0 bd ff 6b 8b bd c7 16 f4 bb b2 b5 50 bc
       -0.10195134 -0.06807708 -0.0074490043 -0.012738632
0002c0 25 92 c2 3c 69 75 41 be 63 df 9a bd 79 6e 11 be
       0.023751328 -0.18892445 -0.07562139 -0.14202298
0002d0 0b 29 43 be ae 1c 38 be b3 77 45 be 7b ba df bb
       -0.19058625 -0.1797969 -0.19283943 -0.00682765
0002e0 c3 26 0b 3b 5e db cc bd f3 ea eb bd 4e 11 dd bd
       0.002123282 -0.100027785 -0.115194224 -0.10794316
0002f0 8e d0 68 be 96 3d 29 be b3 0e 1c be f2 81 ea bd
       -0.22735807 -0.165274 -0.15239982 -0.11450566
000300 f3 88 8c bb b4 b7 35 bd 1f bb 44 bd ef 4c e2 bd
       -0.0042887866 -0.044364646 -0.048030015 -0.1104983
000310 9e 04 0a be 22 82 0e be cf 9c f1 bd 1f 18 8c bd
       -0.13478324 -0.13916829 -0.11797487 -0.06840538
000320 38 de c4 bd 2f 68 cf bd 20 8a 1d be 0a 45 11 be
       -0.09612697 -0.10127293 -0.15384722 -0.14186493
000330 77 0e 42 be 2e 10 c4 3c 60 85 22 be 26 25 e6 bd
       -0.1895083 0.023933496 -0.15871191 -0.11237554
000340 ee 22 06 bd 39 ae 7c 3d 49 91 13 be 3b 83 1f bd
       -0.032748155 0.06168959 -0.1441089 -0.03894351
000350 05 8f 40 be d3 71 03 bd cf 06 68 be 26 6a 23 be
       -0.18804558 -0.032090973 -0.22658847 -0.15958461
000360 5c 24 50 3c 47 73 ed bd 54 aa bb bb e1 f9 3f be
       0.012703981 -0.11594253 -0.005727092 -0.18747665
000370 74 bc 6e bd 1e c2 1a be 54 ba 45 bd 6b ca eb bd
       -0.05828519 -0.15113112 -0.0482734 -0.115132175
000380 59 1e 0b be ec 98 00 be 45 df bf bd 99 89 35 be
       -0.13585795 -0.12558335 -0.09368757 -0.1772827
000390 fe 5d c4 bd 1f 85 69 be f1 66 90 bd de 3b 7d 3c
       -0.0958824 -0.22804688 -0.070508845 0.015456168
0003a0 23 ba 3c be a3 42 fe 3d 8f b8 c2 bd a1 7b f1 bd
       -0.1843038 0.12415054 -0.09507858 -0.117911585
0003b0 ce 60 a7 be 4a 56 5f be 81 3f 50 be 5e 1b 9a bd
       -0.32691044 -0.2181026 -0.20336725 -0.07524751
0003c0 12 d0 ed bd 82 27 3a be ba 81 a4 bd fc a4 ba bd
       -0.11611952 -0.18179134 -0.08032556 -0.091134995
0003d0 e8 b5 2e be fb d7 12 be 73 67 c5 bd 2d 88 7a be
       -0.17061579 -0.14340203 -0.09638872 -0.2446601
0003e0 47 f0 53 be ee 8f 60 be d0 e5 3b be ec 76 ee bd
       -0.20697127 -0.21929905 -0.18349385 -0.11643776
0003f0 4d d6 3a be 42 f9 c5 bd 4b 37 74 3d 75 9c 6b be
       -0.18245812 -0.09666683 0.059623044 -0.23008902

rnn.weight_ih_l0_reverse f4 [384, 50]
000000 80 70 35 3e 5b b7 06 3e 5b f3 27 3c 35 7e 79 3d
       0.17718697 0.13155882 0.010250892 0.060911376
000010 ea 09 17 3e d2 41 cd 3d 9f ae 28 3e 21 be 51 be
       0.14749876 0.1002232 0.16472863 -0.20482685
000020 51 a1 3a be e2 e0 06 3d de fa 5f be 56 09 98 3e
       -0.182256 0.03292931 -0.21873042 0.29694623
000030 95 43 fa 3d 16 64 4e 3e a4 d9 e6 bd 3d 0b 16 bd
       0.122199215 0.20155367 -0.112719804 -0.03663181
000040 2e 38 52 bd a1 a6 87 3e 92 0c 6a bc c1 c8 f3 3d
       -0.05132311 0.26494315 -0.014285224 0.11903525
000050 04 59 a7 3c b7 58 3d be 17 f9 b2 bd ab b2 3b bd
       0.020428188 -0.18490873 -0.08738916 -0.045824688
000060 e4 8b 3e bc 60 d3 27 3d 83 9e 59 be c3 dd 67 be
       -0.011630032 0.040973067 -0.21251874 -0.22643189
000070 a9 cb 0a 3e d9 34 99 3e 3a 21 26 3e 61 c6 c0 3d
       0.13554253 0.29923132 0.16223612 0.09412838
000080 54 fb 85 bb 33 2c ef bc bc 7e 86 3d 01 84 2c 3e
       -0.0040887985 -0.02919588 0.065671414 0.1684723
000090 ff da 24 3e ca 07 5f be ab 8d 29 bd 3b ed d7 bd
       0.16099165 -0.21780315 -0.04139487 -0.10543295
0000a0 b0 b7 a5 bc f4 29 00 3e 97 16 37 3e e8 d1 7b 3e
       -0.02022919 0.12516004 0.17879711 0.24591792
0000b0 1c df 82 bd 1c 33 0b be d1 ad 94 bd dc 4a a4 bd
       -0.06390211 -0.13593715 -0.07259715 -0.08022091
0000c0 91 d8 75 bd 79 60 8a 3e 68 d0 f5 3b 63 66 f5 3d
       -0.060020987 0.27026728 0.0075016506 0.11982419
0000d0 9d 11 ce bd a9 2a 11 3e 56 45 d2 bd ac 8c be bc
       -0.10061953 0.1417643 -0.10267131 -0.023260437
0000e0 94 b9 58 3d 91 e5 f4 3d 9b 52 0a be b2 b4 99 3b
       0.052911356 0.11957849 -0.13508074 0.00469073
0000f0 b0 98 7e bd 60 09 52 bd 61 26 1f 3d db af 8b 3e
       -0.062157333 -0.051278472 0.03885496 0.27282605
000100 c0 25 2b 3b 37 c3 e5 bd dd 87 b3 bd 9f bb 65 be
       0.002611503 -0.11218875 -0.08766148 -0.22434853
000110 de e8 dc 3d 19 e8 88 bd 35 42 a6 3d 1a c2 b5 3e
       0.107866034 -0.06684894 0.08118097 0.3549965
000120 e6 54 7f 3e 6a 97 22 be 13 e2 16 be 4b a9 8c 3e
       0.2493473 -0.15878072 -0.14734678 0.2747291
000130 1c 67 70 bd d7 ac 4e bd 84 7a 2d 3e 7a c3 30 3d
       -0.058692083 -0.0504578 0.16941267 0.04315517
000140 c8 42 d1 3d 0d 41 f9 3d 13 65 77 3e 8c 26 6b be
       0.10217816 0.121706106 0.2415965 -0.22963923
000150 8c aa bc 3d 06 ec b7 3d fb ed e6 39 58 76 7d be
       0.09212217 0.08980565 0.00044046328 -0.24752176
000160 60 93 e0 3d c8 a7 c6 3d 94 c7 20 3d 9c 69 8b bc
       0.109656096 0.096999705 0.039252833 -0.017018132
000170 9b 6b 36 3b 6b 9f 91 bd 06 a5 70 be b7 a9 da bc
       0.0027835134 -0.07110485 -0.23500451 -0.026692254
000180 26 b0 51 be 6d 81 00 be 22 b4 c7 3d cd 82 10 be
       -0.20477352 -0.12549372 0.097511545 -0.14112397
000190 a4 a5 5e be 11 ae 9e bd 04 18 9c 3d 30 01 03 be
       -0.21742874 -0.07748044 0.07621768 -0.12793422
0001a0 c4 51 29 3d 2a c8 be bd 4a 19 cc 3d c5 33 63 bb
       0.041337743 -0.09315522 0.09965761 -0.0034668308
0001b0 fd a8 96 3e 2a 9c d4 bd af cf ec 3d b2 cd 9d bd
       0.29425803 -0.103813484 0.1156305 -0.07705249
0001c0 de 21 0f be ff 17 0a 3d 1f 39 12 3d 6b df f0 bd
       -0.13977763 0.03371429 0.035699006 -0.117613636
0001d0 4e 4d 16 be 70 e8 08 be b1 2d 49 be 58 af 10 3c
       -0.14677927 -0.13369918 -0.19646336 0.008830868
0001e0 20 cc 53 3e 92 b8 13 3e 68 9c 1d be 65 01 4f 3d
       0.20683336 0.14425877 -0.15391695 0.05053844
0001f0 e5 cc f5 bc 10 15 20 be 7a 41 61 3e 3e 3e f9 3d
       -0.030004928 -0.15633035 0.21997634 0.12170075
000200 98 a0 9e bd e4 be 46 3e 70 73 66 3d f2 73 4c bd
       -0.077454746 0.19408756 0.056262434 -0.04991526
000210 0a 7a 4e be ee 74 85 bd 98 d8 5d 3d c3 87 95 bc
       -0.20163742 -0.06516443 0.054161638 -0.018253213
000220 9c e6 00 be b2 02 1c be cf 21 a6 3c dd 4f 42 be
       -0.1258797 -0.15235403 0.020279793 -0.18975778
000230 75 8f 0f 3e a5 89 21 be 87 3a 53 be d3 6d 08 3c
       0.14019568 -0.15775163 -0.20627795 0.008326965
000240 c7 8e 85 3d 92 cf be bd 21 7e b1 bc 06 56 7a 3e
       0.06521373 -0.09316935 -0.021666588 0.24446878
000250 28 1f 86 3e 18 d7 e6 bd 9d d5 64 bd 68 aa 8e bc
       0.26195645 -0.112714946 -0.05586778 -0.01741524
000260 a5 db ed bd d4 7f 61 3d 96 da 63 3d d8 31 0f 3e
       -0.116141595 0.055053547 0.05562838 0.13983858
000270 62 fd 52 bd c3 12 50 3e d5 96 aa bd 34 65 68 3e
       -0.051511176 0.20319657 -0.0832955 0.22694856
000280 78 4d 5c 3d a4 1e 63 be 1c 0c 95 3c 15 3f 2b 3e
       0.053784817 -0.22179657 0.01819425 0.16723283
000290 ac cf c8 bd cd f5 4a 3e ae 95 ff 3b da 81 31 3a
       -0.09805235 0.19820328 0.0077998256 0.00067713636
0002a0 45 3d 62 3e 80 20 9a 3d 9a 24 31 3d cc 28 04 3d
       0.22093685 0.0752573 0.043247797 0.03226547
0002b0 93 8d 13 3e 46 5e 69 bc ef ce 13 be 43 7a 9f 3d
       0.14409475 -0.014243668 -0.14434408 0.077869914
0002c0 fc eb 98 3d 0e 10 37 3e 7e ae 1b 3d 7c 42 cf bb
       0.074668854 0.17877218 0.038008206 -0.006325064
0002d0 54 15 62 3d 9e 80 f5 3d df e8 59 3b ba ee 12 be
       0.05519612 0.119874224 0.0033250374 -0.1434888
0002e0 5f 08 0d 3d 1d 49 9e 3d 3d c7 97 bd 10 c5 61 3d
       0.03443181 0.07728789 -0.074110486 0.055119574
0002f0 5e 8e 5e be 34 4e 30 3e 33 4c a9 3c 5a b9 cf bd
       -0.21733996 0.17217332 0.020666217 -0.10142775
000300 2f 73 74 3e 3f bb 8a 3d 6d 5b be 3d 5a 5c 4b 3e
       0.23872064 0.067739956 0.09294782 0.19859448
000310 6c 7f 05 3d c3 34 7b be 64 f9 d7 3d 2d f4 84 be
       0.032592222 -0.24531846 0.10545614 -0.2596754
000320 32 17 7f bd 38 80 55 bd d7 09 21 be 9a f4 5c be
       -0.06227798 -0.052124232 -0.1572641 -0.21577683
000330 6e 31 84 bc 18 e0 15 be b2 9b 41 be 5d ad 00 3e
       -0.016136851 -0.14636266 -0.1890705 0.12566133
000340 9b 67 88 bc 5c 8a d2 bd 9f 6e 6a 3d 5b 4e 1a be
       -0.016650965 -0.10280296 0.057234403 -0.15068953
000350 53 d5 f7 bc fa 72 62 be 87 d0 0e 3d 1d b1 ab 39
       -0.030253088 -0.22114173 0.034866836 0.0003274762
000360 ef f8 89 be f7 ec f6 3d 7a 31 87 3d ea f6 0e be
       -0.26947734 0.12056916 0.06601234 -0.13961378
000370 61 76 44 be 4f 77 79 3c 8b 47 b6 3d 11 99 2f be
       -0.19185783 0.015226199 0.089003645 -0.17148234
000380 0b 09 84 bc ef ae 36 3e b4 b7 a8 3d d8 cd 36 bc
       -0.016117593 0.1784017 0.082381636 -0.011157475
000390 83 42 a3 3c 3d 5d a0 be de 6a 74 3d 84 ef f3 3d
       0.019929176 -0.31321135 0.05967223 0.11910918
0003a0 70 b2 0d 3e a7 72 b1 be ff a7 0e be aa a4 1e 3b
       0.138376 -0.34657785 -0.13931273 0.0024207034
0003b0 b9 04 35 3e c9 08 00 3d 71 44 1e 3e 2d 13 8e 3e
       0.17677583 0.03125838 0.15455796 0.27749005
0003c0 c7 c6 72 be 53 12 57 3e 3d 28 9a bd a9 0d b9 be
       -0.2370864 0.21003084 -0.07527206 -0.36143234
0003d0 c0 2b 94 3e c7 5c c4 bc 37 98 84 bd ba 95 48 bc
       0.2893963 -0.023970021 -0.06474345 -0.012242729
0003e0 df 35 9a 3d 05 bf 32 be 85 62 c2 bd 0a e5 9d bb
       0.07529806 -0.1745568 -0.09491447 -0.0048185633
0003f0 72 af 78 bd 8e 40 91 3c 56 9f 3f 3e ee 6b 23 be
       -0.060714193 0.017730977 0.18713126 -0.1595914

rnn.weight_hh_l0_reverse f4 [384, 128]
000000 2f 29 f0 bb 7e 98 a8 bd c3 d5 3a 3e 4e 35 00 3e
       -0.007329128 -0.082322106 0.18245606 0.12520334
000010 a8 7e 34 bd 66 e0 94 3c f9 31 a1 3d ff ef 38 be
       -0.0440661 0.018173408 0.0787086 -0.18060301
000020 16 a3 3b be 79 b2 e7 bd 8c 77 a3 3d 37 da 2b bd
       -0.18323931 -0.11313338 0.07981786 -0.041956153
000030 80 a1 0e 3d f9 ec 3b bd f0 9b 95 3e 16 e7 2d bd
       0.034821987 -0.04588029 0.29220533 -0.04245671
000040 44 3c f9 3d d5 fe d3 bd 4d 12 a1 3d 5c 91 53 3e
       0.12169698 -0.1035134 0.07864819 0.20660919
000050 6f aa 12 3e de f0 5b bb 26 6d 70 3e 90 3e d0 3d
       0.14322828 -0.0033560316 0.23479137 0.10168183
000060 4d 6a b5 3d 10 71 4d 3e 0f 2b a6 3e 7e c4 1d 3d
       0.08858166 0.20062661 0.32454726 0.038517468
000070 76 b8 4c bd e2 11 4b be 16 36 3d be 17 00 a9 3c
       -0.049980603 -0.1983104 -0.18477663 0.020629926
000080 a1 5e 14 3e b3 ff c0 bb d1 80 18 be 02 30 da 3c
       0.14489223 -0.0058898567 -0.1489289 0.02663422
000090 36 78 0b be c9 e0 ff bc 36 48 95 bc 6b 4b f1 bc
       -0.13620076 -0.031235116 -0.01822291 -0.029454907
0000a0 b0 9d 97 3e e8 20 2f 3e 3e 81 ef 3d d1 82 d2 bd
       0.29612494 0.17102396 0.11694573 -0.102788575
0000b0 08 26 6d bd 0e fa ea bd 18 9e 23 be 05 e0 59 be
       -0.057897598 -0.114734754 -0.15978277 -0.21276863
0000c0 4a d1 7b 3c be 5f 9a bc 46 04 d2 bd a2 d7 f1 3d
       0.015369723 -0.018844482 -0.10254721 0.11808707
0000d0 c7 ea 0f be 0a 8f 9d 3d 9b a6 93 bd 8b 63 74 bd
       -0.14054404 0.07693298 -0.07209512 -0.059665244
0000e0 e6 43 0e 3d 7b 27 0e 3e 8f a1 34 be f9 b7 79 bd
       0.03473272 0.13882248 -0.17639755 -0.060966466
0000f0 91 eb 9a bd 5b 2a f6 bb 51 52 95 3a a5 60 c2 3d
       -0.07564462 -0.0075123734 0.001139233 0.0949109
000100 ec 42 16 be 5e 06 55 bd 19 d4 82 be e4 6e a1 3d
       -0.14673966 -0.052008025 -0.25552443 0.07882479
000110 7b e2 c7 bd 19 d3 e3 bd e0 cb 1a 3d f4 22 a1 3d
       -0.097599946 -0.11124248 0.037792087 0.07867995
000120 d3 72 c0 3d 41 56 c6 3b 19 8e ed 3c eb 1a a1 3d
       0.09396901 0.0060527627 0.028998422 0.07866462
000130 b5 fa 93 3d a1 93 64 bd 13 76 ad bd 99 f1 0a 3e
       0.07225553 -0.055804852 -0.084697865 0.13568725
000140 2d 36 df 3d a7 4c 92 bd 1f ec 43 bc 31 30 0b 3e
       0.10899005 -0.071435265 -0.011958151 0.13592602
000150 2f e1 5d 3c 73 21 82 3d 36 6f c3 bd 7b d8 12 be
       0.0135424575 0.06354036 -0.09542696 -0.14340393
000160 99 43 c5 bc ff 5f e2 bc ea 23 15 3d ec 25 82 3e
       -0.024080085 -0.027633665 0.036411203 0.25419557
000170 bc 73 4b bd 95 b7 5c bd d0 32 34 be 15 42 8b bd
       -0.04967092 -0.053886015 -0.17597508 -0.067997135
000180 3d d8 28 bd f3 22 c8 bd 56 4a 10 3d 06 bd f0 bd
       -0.041221846 -0.09772291 0.035227142 -0.11754803
000190 a7 27 ad 3c cf de e4 bd a4 eb 21 be 0d ea 49 3d
       0.021137072 -0.1117531 -0.15812546 0.049295474
0001a0 75 ab 23 3e bc a8 ab 3d 8c 9b c9 3c 67 5c 36 3d
       0.15983374 0.08381793 0.024610303 0.044521715
0001b0 a4 61 52 3b 96 46 2f 3c 69 68 92 bd 62 cf 40 be
       0.0032101655 0.010697981 -0.07148821 -0.1882911
0001c0 7b 86 9b bd 53 ed ce 3d 52 a1 91 3c 9d 3b ed bb
       -0.075940095 0.1010386 0.017777119 -0.0072397725
0001d0 9d 46 9c 3e bf da 14 bc 81 35 19 be 11 d1 4e be
       0.30522624 -0.009085356 -0.14961816 -0.2019694
0001e0 16 23 e9 3d 19 e8 c1 3d 3f 39 60 bd 04 16 b1 bc
       0.11383645 0.09468097 -0.054742094 -0.021616943
0001f0 f8 2d 7e 3d fc c0 e2 bc 47 dc 28 bd 21 0e 6d bd
       0.062055558 -0.027679913 -0.041225698 -0.057874803
000200 54 8b 21 3c 19 66 bb 3c 0e 90 a9 bd 2c 25 14 3b
       0.009859879 0.022875832 -0.082794294 0.0022605164
000210 8b 0c 65 3d 04 60 5a be 58 40 46 bd 9e e6 34 3e
       0.055920165 -0.2132569 -0.048401207 0.17666098
000220 29 1e 2b be db 84 88 bc ff 94 d2 bc 05 b6 13 ba
       -0.16710724 -0.016664913 -0.025705812 -0.0005634728
000230 5a 21 f1 bd 17 30 9d bc 3f d6 f6 3d 0b 61 64 bd
       -0.117739394 -0.01918797 0.12052583 -0.05575661
000240 3d ac 1a 3e 09 52 98 3b bb 2f a8 bd 1e e5 50 be
       0.15104766 0.004648451 -0.08212229 -0.20399901
000250 11 b3 95 3d 4c 8d ee bd 66 e2 1d bd 21 7a 3e 3e
       0.07309545 -0.11648044 -0.03854599 0.18601276
000260 38 87 af bd 92 af 75 be a8 12 dd 3d 5b 79 66 3c
       -0.08570713 -0.23992756 0.10794574 0.014067019
000270 b9 4c 25 bc 2b 6e db bc 47 b4 05 3e a1 39 b8 bd
       -0.010089093 -0.02678593 0.13057052 -0.08995367
000280 e3 fd 05 3c ef d8 41 be ae 0e 9f 3c ed a5 44 be
       0.008178207 -0.1893041 0.01941618 -0.1920392
000290 be ad bb bd 23 3e 2c 3d e7 5c e3 3b 62 82 42 be
       -0.09163998 0.042051446 0.006938565 -0.1899505
0002a0 03 43 52 be e9 93 87 be c0 9a 89 be 5a f6 84 3d
       -0.20533375 -0.26480034 -0.26875877 0.064923
0002b0 63 b6 c0 3d 47 b5 db bd 92 be a7 bd 4a 29 96 3e
       0.094097875 -0.10727935 -0.08190645 0.29328376
0002c0 4f 97 05 bc 95 8c 1c be a7 f3 9f bd 89 63 49 3e
       -0.008153751 -0.15288003 -0.07810145 0.19666876
0002d0 5c 87 6f bd bb 2b 4e 3c 8c ae be bb 78 9f f1 3c
       -0.058478698 0.012583668 -0.0058191475 0.029494986
0002e0 27 92 0d 3e fb f1 03 3c e7 71 0c 3e 93 a4 5e be
       0.13825284 0.008053298 0.13715325 -0.21742468
0002f0 2b 9e 4e 3d 99 28 e5 3d b5 24 67 3d a7 fb 90 bd
       0.05044381 0.11189384 0.05643149 -0.07079249
000300 13 08 ab bc be 38 44 be 0c ec 44 be 0e e6 93 3d
       -0.020877874 -0.1916227 -0.1923067 0.07221614
000310 34 b1 9a bd 9a 1b 45 bd 94 3d 4e bd 0b e9 01 3e
       -0.0755333 -0.048122026 -0.050351694 0.12686555
000320 2a db 88 bd a2 fe 07 be f2 28 03 3d 5b aa b5 bd
       -0.06682427 -0.13280728 0.03202147 -0.08870383
000330 5c 7d 48 be 3d f6 76 bc 03 d9 eb 3c b2 f8 8b 3e
       -0.19579071 -0.015073356 0.028790003 0.27338177
000340 86 c6 90 3d 1f d7 4f bd e2 72 a3 bd 5e 43 ab 3d
       0.07069115 -0.050742265 -0.079808965 0.08362459
000350 2c 4e ba 3e 02 3e 92 bd 8d 5d 55 be 86 97 6b bd
       0.36387765 -0.07140733 -0.20836468 -0.05751755
000360 5e ab 8e bd 7d 35 56 be 47 20 81 bc 2d 78 7f 3e
       -0.069662794 -0.20918842 -0.015762461 0.24948187
000370 d2 3e d8 3d 56 51 02 be 8f 1c 23 3e 58 e5 55 bd
       0.10558857 -0.1272634 0.15928863 -0.052220672
000380 64 8b bc bc 10 b1 92 3d bf c4 f7 bd 12 3e 1b bc
       -0.023015685 0.07162678 -0.12098073 -0.009475248
000390 43 4f 8c be 2d 24 06 be b3 d8 c4 3d 5b 52 bc bd
       -0.27404222 -0.13099737 0.096116446 -0.091953956
0003a0 40 a0 11 bc d1 07 38 be 1b 48 54 bd a9 de d3 bc
       -0.008888304 -0.17971732 -0.051826578 -0.025863009
0003b0 3b ed a5 bd 20 cb 47 3d 75 82 6a be 82 d4 12 be
       -0.08101889 0.0487777 -0.22901328 -0.14338878
0003c0 a2 4b c6 3d c1 09 c6 bb c1 0e 8f bd af 59 51 3d
       0.096823946 -0.006043643 -0.06985236 0.05111092
0003d0 96 bf 0d 3e 60 c1 94 3a fc 20 89 3e ae 31 36 3d
       0.13842615 0.0011349134 0.26782978 0.044480972
0003e0 ba af 85 bd 2f 10 cc 3d 6a b4 87 bd 63 5c 46 3d
       -0.06527658 0.09964024 -0.06626208 0.04842795
0003f0 f4 2f b5 bd 4d 89 2a be 14 bd 1e 3c 4d a0 bf 3d
       -0.08847037 -0.16653939 0.009688634 0.09356747
