data-generation/error_tagger/models/model.pt (torch, 593028 bytes, 11 tensors)

embed_layer.weight f4 [62, 50]
000000 00 00 00 00 00 00 00 00 00 00 00 00 00 00 00 00
       0.0 0.0 0.0 0.0
000010 00 00 00 00 00 00 00 00 00 00 00 00 00 00 00 00
       0.0 0.0 0.0 0.0
000020 00 00 00 00 00 00 00 00 00 00 00 00 00 00 00 00
       0.0 0.0 0.0 0.0
000030 00 00 00 00 00 00 00 00 00 00 00 00 00 00 00 00
       0.0 0.0 0.0 0.0
000040 00 00 00 00 00 00 00 00 00 00 00 00 00 00 00 00
       0.0 0.0 0.0 0.0
000050 00 00 00 00 00 00 00 00 00 00 00 00 00 00 00 00
       0.0 0.0 0.0 0.0
000060 00 00 00 00 00 00 00 00 00 00 00 00 00 00 00 00
       0.0 0.0 0.0 0.0
000070 00 00 00 00 00 00 00 00 00 00 00 00 00 00 00 00
       0.0 0.0 0.0 0.0
000080 00 00 00 00 00 00 00 00 00 00 00 00 00 00 00 00
       0.0 0.0 0.0 0.0
000090 00 00 00 00 00 00 00 00 00 00 00 00 00 00 00 00
       0.0 0.0 0.0 0.0
0000a0 00 00 00 00 00 00 00 00 00 00 00 00 00 00 00 00
       0.0 0.0 0.0 0.0
0000b0 00 00 00 00 00 00 00 00 00 00 00 00 00 00 00 00
       0.0 0.0 0.0 0.0
0000c0 00 00 00 00 00 00 00 00 c9 2d 1f bf 17 d9 21 bf
       0.0 0.0 -0.6217924 -0.6322188
0000d0 55 4b a6 3d 5e a4 9d be 82 6a 3d 3f 5d dc 27 bf
       0.08119837 -0.30789465 0.73990643 -0.6557062
0000e0 1c 43 be 3e 6c ad 17 40 33 e6 c6 bf a4 76 8a bf
       0.37160575 2.3699598 -1.5539001 -1.0817456
0000f0 88 c3 48 bf c5 97 5d 3f dd 85 1f c0 6d 54 d7 bf
       -0.78423357 0.86559707 -2.4925454 -1.682264
000100 73 87 52 bf b1 a8 db 3f 0a e1 b9 bf 81 23 82 3f
       -0.8223793 1.7160856 -1.4521801 1.0167085
000110 f5 8e ac bf c7 c9 7a 3d 78 3a 4b 3e 3c bd 03 40
       -1.3481127 0.061227586 0.19846523 2.058425
000120 b0 29 eb 3e c8 bf a1 be 43 14 07 3e 38 29 00 40
       0.45930243 -0.3159163 0.13191323 2.0025158
000130 28 a2 85 3f 2e b1 90 3f 05 c7 1e 3e 02 09 72 3f
       1.0440111 1.1304071 0.15505607 0.94544995
000140 e0 a5 63 3e a1 91 9c 3e 8e 75 9c be 47 1a 1e c0
       0.22231245 0.30579856 -0.30558437 -2.4703538
000150 73 81 76 3f a1 46 6e bf f7 01 8c 3f f1 0c 8c bf
       0.96291274 -0.9307652 1.09381 -1.0941449
000160 02 79 0f bd 80 0a 48 3f 1a fc d2 3d 23 86 9c bf
       -0.03502751 0.7814102 0.10301991 -1.2228435
000170 63 46 9e 3e 6c b8 fe 3e a8 c5 8a bf 5f 12 94 3f
       0.30913076 0.49750078 -1.084157 1.1568106
000180 a7 42 41 bf c0 08 68 3e 33 f3 30 3f 3a ad 60 3f
       -0.7549233 0.22659588 0.6912109 0.8776432
000190 83 84 69 3d 86 14 80 be c3 96 cd bd 31 cc 90 3e
       0.05701114 -0.25015658 -0.10038521 0.28280786
0001a0 6e 16 e2 3f d6 0b 9b bd 26 00 88 be 43 36 cd be
       1.7663095 -0.07570617 -0.26562613 -0.4008046
0001b0 ed df 0b c0 e6 06 82 be 2e 0c 61 bf c1 7e 89 bf
       -2.1855423 -0.25395888 -0.8790921 -1.0741807
0001c0 8f 0f 25 3f d2 c9 13 3e e8 23 b3 3e e9 0f b9 3f
       0.64476866 0.14432457 0.34988332 1.445798
0001d0 f8 20 e7 bf 67 10 b5 3d 55 c1 09 c0 82 9b 49 3d
       -1.8056936 0.08841019 -2.152425 0.04922057
0001e0 28 36 a6 bd 85 61 e8 bf 6a ee ef 3e 4d 74 16 bf
       -0.08115798 -1.8154761 0.46861583 -0.5877121
0001f0 e2 b1 83 3f 59 3e a5 bf 57 9d c7 3d 27 7b 05 c0
       1.028866 -1.2909652 0.09746807 -2.0856416
000200 7c b3 ea 3e 52 9d f8 3e 52 67 23 3d 47 f7 37 bf
       0.4584006 0.48557526 0.039893456 -0.7186169
000210 2f a1 30 3f c4 e8 c0 bf ac 56 dd 3f 92 02 c4 3f
       0.68995947 -1.5071034 1.7292075 1.5313284
000220 47 92 ce 3f ee fe 37 bf 44 31 c8 bf bc b2 1e bf
       1.613839 -0.71873367 -1.5640035 -0.61991477
000230 6a c7 e5 3b dc 2f 9a bc fa 02 be bf b5 2a a2 be
       0.0070122974 -0.01882165 -1.4844658 -0.31673208
000240 36 b7 3d bf 86 fe a5 bf b2 a5 44 3f 15 f0 41 bf
       -0.7410768 -1.2968299 0.7681533 -0.7575696
000250 ec 8e 97 be b6 8e 8b 3e 72 18 56 3f c0 e3 81 be
       -0.29601228 0.27257317 0.8363105 -0.25369072
000260 2b a5 97 3f dc b3 2c 3f 5d 29 6d bf ba 64 1d bf
       1.184728 0.67461944 -0.9264124 -0.6148182
000270 15 5b b0 bf 5a 72 d8 3e 77 ec 74 bf de 33 3c 3f
       -1.3777796 0.42274743 -0.95673317 0.73516643
000280 fb f1 95 3f 80 38 4a bf 67 dc fa 3e a4 17 06 bf
       1.1714472 -0.7899246 0.4899628 -0.5237982
000290 5c 74 ba bf 16 7c 59 3f da a4 00 40 7a e7 a8 bf
       -1.456676 0.84954965 2.0100617 -1.3195641
0002a0 6a 49 0d 3f 77 58 b4 3e 27 c9 fb be 17 9f 50 bf
       0.55190146 0.35223743 -0.49176905 -0.8149275
0002b0 85 bd 17 3f 95 52 8f bf 6e bc 5c bf 0d 69 a9 3e
       0.5927356 -1.1197077 -0.8622502 0.3308796
0002c0 53 97 99 3e bb b0 00 40 fc 3c 0a 3f c6 21 7b bf
       0.29998264 2.0107868 0.53999305 -0.9809841
0002d0 12 1c 53 bf c9 63 46 3f ac 5c f8 3f f7 97 02 c0
       -0.82464707 0.7749601 1.9403281 -2.0405252
0002e0 99 5c 8f bf 59 38 ad 3f c0 24 a7 be 5a a5 70 bd
       -1.1200134 1.3532821 -0.32645226 -0.05875144
0002f0 f7 ba 97 3e 79 5b bf 3f 40 ed a0 bf ae 38 eb be
       0.2963483 1.494979 -1.2572403 -0.4594168
000300 e9 d4 75 3e ff 5e 6b bf ba 50 43 c0 d0 7a 30 3e
       0.24007 -0.9194183 -3.0518022 0.17234349
000310 9a 7c 18 3f f7 d7 84 bf fc eb 2b 3f 2b 72 d4 bf
       0.59565127 -1.0378407 0.6715696 -1.6597341
000320 0d 0f 0a bf f9 32 0c 40 cb a0 db 3e 7c ad b4 3f
       -0.53929216 2.1906111 0.42896113 1.4115443
000330 82 55 02 3f fc f1 b9 3f 58 39 0e 3f 5a 96 d6 bf
       0.50911725 1.4526973 0.5555625 -1.6764634
000340 b0 e9 c0 bf 60 b9 79 3d 6e 77 a0 3e fa 45 53 bf
       -1.5071316 0.060967803 0.31341118 -0.8252865
000350 72 e8 ac 3f 6f 92 de 3f 99 8e 7f 3f 16 a5 8b be
       1.3508437 1.7388438 0.9982696 -0.27274388
000360 ad 22 b0 bf 52 2c 00 be 75 24 57 3f ab 32 7d 3c
       -1.3760582 -0.12516907 0.84040004 0.015453975
000370 df 55 fe be 5d 62 09 bf bf 5c e7 be 55 54 96 be
       -0.4967489 -0.53665715 -0.45187947 -0.29361215
000380 00 97 01 bf 92 f6 bf 3f 35 2a fb bc 84 c2 f4 be
       -0.5062103 1.4997122 -0.030659774 -0.47804654
000390 cc 9a 57 3f cb c3 0a 3f e4 73 61 bf 43 54 64 bf
       0.84220576 0.54205006 -0.8806746 -0.89191073
0003a0 59 7d bb bd 3a 1b ad 3f f6 87 96 3f 1a 53 97 3e
       -0.091547675 1.3523934 1.1760242 0.2955559
0003b0 6d f4 b0 3f 6f de 3c 3f b8 f6 82 bf ea f5 e2 3f
       1.3824593 0.73776907 -1.0231543 1.7731297
0003c0 63 e4 11 3d 76 f3 b6 3e 7e 99 ef bd 44 5d 7e 3f
       0.035618197 0.3573262 -0.11699198 0.9936106
0003d0 9d 36 07 be 9f e5 33 bf 4b 2e 46 3f 71 48 a9 bf
       -0.13204427 -0.7027225 0.7741439 -1.3225232
0003e0 18 44 cd 3f b1 95 84 be 7d 86 9a be 61 30 f4 be
       1.6036406 -0.25895455 -0.3018073 -0.4769316
0003f0 88 c9 cb bf 24 0b e7 bd 64 0b b6 3f 0e cb 80 bf
       -1.5920877 -0.11281422 1.4222226 -1.0061967

rnn.weight_ih_l0 f4 [384, 50]
000000 5f 1b 36 3a 7a 5d bb 3e 43 93 54 3e f5 33 7c 3d
       0.00069468276 0.36594754 0.20759301 0.061572988
000010 97 8d 31 3e 69 53 6c 3e 2d a6 ce 3c 19 a0 fa bb
       0.17339168 0.23078693 0.025225723 -0.0076484797
000020 86 f1 39 3c 99 80 6e bc ed 70 af bd 96 b9 2d 3b
       0.011349088 -0.014557027 -0.08566461 0.0026508323
000030 a5 bb df 3d da 57 88 3d 47 bf 1e 3d c3 0d 99 3d
       0.10924462 0.06657381 0.038756635 0.07473328
000040 24 12 ea bd 18 46 33 3e 54 bd 21 be c0 62 24 be
       -0.11429241 0.17507207 -0.15794879 -0.16053295
000050 ca 02 0d 3d 60 0a c5 bd db 75 11 be 51 70 3b be
       0.034426488 -0.096211195 -0.14205115 -0.18304564
000060 98 34 95 3d de 95 4d 3b 90 8e e3 bd 07 6e 24 bc
       0.07285422 0.0031369845 -0.11111176 -0.010035998
000070 c4 de c9 bd eb 4d 68 bd b3 90 71 3d c6 0d 30 be
       -0.09856942 -0.056714933 0.058975887 -0.17192754
000080 11 10 1e be 10 db 9b 3d 34 2f 0f be cd 05 0e 3d
       -0.15435816 0.07610142 -0.1398285 0.0346735
000090 96 7d 87 b9 05 b0 70 3e 5a 35 94 be 39 0f 5c bd
       -0.00025842775 0.23504646 -0.28946954 -0.053725455
0000a0 ab 06 e2 3d fe d7 8a bc 3a d0 ba 3d 63 a8 c5 bd
       0.11036428 -0.016948696 0.09121747 -0.09651258
0000b0 bc 7b 20 be df 5f c6 bd 36 15 a6 3c 76 7f 8c be
       -0.15672201 -0.09686255 0.020273786 -0.27440995
0000c0 fd 10 17 bd 27 cc 75 3d 67 af ab bc d7 bd d2 bd
       -0.036881436 0.060009148 -0.020957662 -0.10290115
0000d0 e7 4a f6 bd 83 18 a7 bd c8 16 73 bd c7 14 00 3e
       -0.12026005 -0.08158972 -0.059347898 0.12507926
0000e0 2e 66 a6 3e 02 92 87 be 4e 3f 65 3e 8d 1e 3b 3c
       0.32499832 -0.26478583 0.2238743 0.011420858
0000f0 9c b9 52 3d a6 38 7e be 96 f1 61 3e 36 15 44 bd
       0.051446542 -0.24826297 0.22064814 -0.04787179
000100 bb b0 24 3c ba dd 7d 3e 11 ab a8 3e 3d 35 48 be
       0.010051901 0.24791613 0.32943013 -0.19551559
000110 a7 bb 2a 3d 55 ac 84 be 38 35 a7 3d 7b 2e 95 be
       0.041682865 -0.2591273 0.081644475 -0.29137024
000120 a8 0b 5a 3d 36 6a 27 be 04 c0 61 bd e1 78 03 be
       0.053233773 -0.1634911 -0.05511476 -0.1283908
000130 38 7d 63 bd 85 c9 af bc d9 7f a0 3d 09 9f d8 3d
       -0.05553934 -0.021458397 0.07836885 0.105772085
000140 5c 96 9c bd 83 b1 00 3e ba d9 86 3d 04 ba b5 3e
       -0.07645866 0.12567715 0.06584497 0.3549348
000150 b9 ff 26 be cd 06 1d 3e 7b 7e 69 3d 6d 0c 82 3d
       -0.16308488 0.15334626 0.057005387 0.06350026
000160 c0 ee 99 3d e5 0c bc 3d 7e d8 95 bc 75 1f dc bd
       0.07516241 0.09182147 -0.018291708 -0.107481875
000170 4a d0 4f 3c 54 c7 1f 3e d0 9b 82 3c bd 3e 15 3e
       0.012683937 0.15603381 0.015943438 0.14574714
000180 84 26 e0 3d 77 ab f7 bd 90 ae 4e 3e e4 9b d5 3d
       0.10944846 -0.12093251 0.20183778 0.104301244
000190 50 f7 16 be 3d 63 a9 3d b8 0c ca bc fb f6 80 3d
       -0.1474278 0.08270881 -0.024664268 0.06297108
0001a0 9f 12 20 3c 7a 8b 29 3d ee 5f 39 bd 11 4b 56 bd
       0.009770065 0.04139278 -0.0452575 -0.052317683
0001b0 30 7c f3 3d b3 36 b4 bd a5 91 75 bd 87 51 02 be
       0.11888921 -0.087994955 -0.05995335 -0.12726413
0001c0 1d f1 2c bd f8 af 68 be 11 b9 1c 3e b9 c5 aa 3d
       -0.04222213 -0.22723377 0.15304972 0.08338494
0001d0 3d 83 70 bd 20 71 a3 3c 3b 2e 40 3e db ba f6 bd
       -0.05871891 0.019951403 0.18767636 -0.120473586
0001e0 3c 5f c2 bd 04 b2 78 3e c6 97 89 3c ea e0 c1 3c
       -0.09490821 0.24286658 0.016796004 0.023666818
0001f0 66 f2 16 be cc 73 b8 3d a1 01 a6 3d 80 0f 51 3e
       -0.14740905 0.090064615 0.081057794 0.20416069
000200 e1 4e 8c bc e6 49 8c be 24 fc 8a be d5 bc 42 be
       -0.017127456 -0.2740013 -0.27145493 -0.19017346
000210 1b b4 77 bb 3e c5 de 3d 02 e5 1c 3c 53 64 70 3e
       -0.003779656 0.10877465 0.009576084 0.2347577
000220 16 67 09 be a6 6c 1c 3e 24 08 3c be ec 89 44 3d
       -0.1341823 0.15275821 -0.1836248 0.047983095
000230 62 fa fc bd bf 86 1a 3c 5a 6a 22 3d 09 ac 90 3e
       -0.12352444 0.00943154 0.039652206 0.28256252
000240 c1 b9 5c 3e d6 2a 9f bd 3b 41 5c 3e 3f a9 75 3d
       0.21555234 -0.07771842 0.21509258 0.05997586
000250 c1 16 70 3c 53 de 4a be ed 79 86 bb 7e 58 04 3d
       0.014653862 -0.19811372 -0.00410389 0.032310955
000260 ef 71 10 bd fc a7 ad bd 85 de a6 bd a5 83 db 3d
       -0.035264906 -0.08479306 -0.08147911 0.107184686
000270 25 36 29 be ed 61 70 bd 34 a2 97 bb 00 83 05 3e
       -0.16524561 -0.05868714 -0.0046274904 0.13038254
000280 eb 99 0a 3e b9 1b b7 3c 91 8d 2c bb 92 12 4b 3e
       0.13535278 0.022352086 -0.0026329497 0.19831303
000290 ab e2 71 bd 8d 8d b0 bd 6e ee 42 3d 9e ac 35 3d
       -0.059054058 -0.08620749 0.047590666 0.044354074
0002a0 fd 1b a8 3c e7 a4 9c 3d 47 6f 19 3e b2 18 af bd
       0.020521158 0.0764864 0.14983855 -0.08549632
0002b0 00 69 ef 3d c8 b0 02 3d 5d 51 ba 3d cd 8e 65 3d
       0.11689949 0.031906873 0.0909755 0.05604439
0002c0 3b fc af bd 73 d7 d6 bd 64 54 cf bd d5 bc 79 3d
       -0.08593031 -0.104903124 -0.10123518 0.0609711
0002d0 f3 50 8a bd a6 48 e9 3d 36 c8 cf bd 35 aa 70 bc
       -0.06753721 0.1139081 -0.10145609 -0.014689018
0002e0 fd 0e 65 bd 8c af 88 bd 53 28 0c bd db 06 98 3c
       -0.055922497 -0.06674108 -0.034218144 0.018557956
0002f0 05 de 8f 3c 20 ca 67 be 06 b0 97 3d 12 b1 93 3d
       0.017561922 -0.22635698 0.07406621 0.07211508
000300 cf 2b 9f 3d d1 60 8d bd d9 16 c2 3d 80 f4 35 bd
       0.07772028 -0.06903232 0.09477014 -0.044422626
000310 09 81 fc bc bd 84 a1 3d 1f 6d 80 bd 55 be 64 3e
       -0.030823248 0.07886646 -0.06270813 0.22338231
000320 77 45 0b be 91 48 41 3e 6b 46 36 3e 77 20 d0 3d
       -0.13600717 0.18875338 0.178003 0.10162442
000330 29 c2 21 3d 29 5b e0 3c 7a 3a 4a bc 09 e8 02 3e
       0.039491806 0.027387219 -0.012343043 0.12783827
000340 6a b0 ad bd fe 8b 85 bd a5 f8 14 3d 43 50 53 bc
       -0.08480914 -0.06520842 0.03636994 -0.012897554
000350 1d d9 04 be 7f 2f ff 3d 43 b6 df 3d 16 76 e6 3d
       -0.12973447 0.12460231 0.109234355 0.11252992
000360 ae cb 3c 3d de 93 3a 3d eb 41 d9 bd ea a7 14 3e
       0.04609268 0.045551173 -0.10608276 0.14517179
000370 87 ff f4 bd a6 64 23 bd 8c c8 ca 3d 17 99 83 bd
       -0.119628005 -0.039890908 0.099015325 -0.06425684
000380 62 51 24 bd f4 02 7f 3e 5c f9 e7 3b 93 8e 49 be
       -0.040116675 0.2490347 0.0070792865 -0.19683294
000390 20 32 67 3c 23 6d 80 3c 4c 01 7a 3c 2c 4f 8c bd
       0.014111072 0.01567704 0.015259098 -0.06851038
0003a0 fe 26 a5 bd ab 3d 68 bd 69 0f 0b bd 66 d6 0e 39
       -0.08064078 -0.056699436 -0.033950243 0.00013622045
0003b0 10 d1 b3 ba 06 0f b7 bd a4 7d 23 be d1 ca 7e bc
       -0.0013718922 -0.08938412 -0.15965897 -0.015551285
0003c0 37 2e bc bb d6 6c a5 bd ed a3 24 3e 5c 9c cb bc
       -0.005742814 -0.080773994 0.16078158 -0.024854831
0003d0 96 91 cb bd 4a c9 46 be 7d d2 01 3c 29 3f 68 bd
       -0.09939878 -0.19412723 0.0079237195 -0.05670086
0003e0 7f 90 45 3d 17 39 80 bd 4c 73 89 3d 16 c9 36 be
       0.048233505 -0.06260889 0.06711444 -0.17850146
0003f0 05 36 db 3d 44 00 6e be 0e 6f c2 3d 69 c6 0d 3e
       0.10703663 -0.23242289 0.09493838 0.13845219

rnn.weight_hh_l0 f4 [384, 128]
000000 4b 75 13 3e b5 8b 02 be ee fc c1 bc 6b ea 88 3c
       0.14400212 -0.12748607 -0.023680177 0.016713342
000010 84 7a f7 bc e7 2c 64 3e 2c 5f 00 be d2 27 7b bd
       -0.030209787 0.22282754 -0.12536305 -0.061317272
000020 6d da bd 3c 81 8f 89 bc 2d e1 d8 3b 01 06 2e 3b
       0.023175443 -0.01679206 0.00661864 0.0026553872
000030 d9 2e 1d 3e 08 3a 81 bd c4 77 ff 3d 41 26 83 b8
       0.15349902 -0.06309897 0.12474015 -6.253692e-05
000040 db c5 78 be 51 ca e8 3c ad 1c 9b 3e 63 08 8d 3d
       -0.24294226 0.028416784 0.30295315 0.06886365
000050 c0 15 96 3d 29 0b c6 3d 9b 97 0a be c5 65 44 3e
       0.07328367 0.096700974 -0.13534395 0.19179447
000060 bd 99 d4 3d d3 da 27 3e e8 e1 32 3a 67 6a 69 bd
       0.10380886 0.16392069 0.0006823824 -0.05698624
000070 89 5f 32 bd 66 cf 5b 3e bc 8c 31 be 0c 27 b1 3d
       -0.04354814 0.21465835 -0.17338842 0.08650026
000080 77 33 0b 3e 66 60 0c 3e 27 8f 28 bd 02 03 24 3d
       0.13593851 0.13708648 -0.041152146 0.04004193
000090 b2 62 14 be 11 db 79 bd e5 b7 2c be 5d 06 7f 3c
       -0.14490774 -0.060999934 -0.16867025 0.015565482
0000a0 dc 58 c5 3d cb 5e d5 bd cf 83 4b bd ef 6f 16 be
       0.09636089 -0.10418471 -0.04968625 -0.14691137
0000b0 2d b5 8f bd 08 17 ea bd 6f 5c a6 bd 6a 9a 24 3d
       -0.070169784 -0.11430174 -0.08123099 0.040186323
0000c0 f0 f0 70 bd 10 0d 81 bc 4d 62 cc bd dd e1 b4 bc
       -0.058823526 -0.015753299 -0.09979687 -0.022080356
0000d0 17 05 41 be 41 b7 82 3d 7a bd 30 bd e2 8f 82 3d
       -0.18849598 0.06382609 -0.04314945 0.063751
0000e0 b6 9f c1 3d 9b c8 9b 3e 8d fd c9 3d ed 08 65 3e
       0.094542906 0.30426487 0.09862814 0.22366686
0000f0 0b 25 e9 bb 55 c4 c1 3d 07 cd fc bd e0 ec 91 bc
       -0.0071150116 0.094612755 -0.12343793 -0.017813146
000100 4b 70 39 3d 76 e9 25 3c 44 32 86 bd f6 5e 0b bd
       0.045273107 0.010126462 -0.06552556 -0.03402611
000110 e4 56 12 be a1 ca a9 3d c5 d8 b1 3d 56 95 f2 bd
       -0.14290959 0.082906015 0.08683924 -0.1184489
000120 5d e8 02 3e 2b b4 cf bd 00 eb 3b be d3 ad 2e be
       0.12783952 -0.10141786 -0.18351364 -0.17058496
000130 00 a2 04 3e 83 c7 23 3e 41 23 83 bd 40 fa 2b 3e
       0.12952423 0.15994076 -0.064032085 0.16794682
000140 8d 65 1b be 9d ed 9c 3d 9f 56 fb bd 64 88 25 3d
       -0.15175457 0.07662509 -0.12272381 0.040413275
000150 ee be 39 be b6 a3 5d 3e f6 75 17 bd a2 48 28 bd
       -0.1813924 0.21644482 -0.03697773 -0.041084893
000160 86 1e 92 be d0 4b 0a 3e 3a a7 6d bd 99 84 01 be
       -0.28538913 0.13505483 -0.058020808 -0.12648238
000170 52 70 a4 bd f9 4e ed 3b 04 4e 1c be 8d 0e 5c bd
       -0.08029236 0.0072420803 -0.15264136 -0.053724814
000180 3a 91 bc 3c a4 e4 0a 3e dc 8e bc bc eb b2 0b 3d
       0.023018468 0.13563782 -0.02301734 0.034106176
000190 ec 66 e7 3d 19 56 4c be 45 74 ad bd c9 00 20 3d
       0.11298928 -0.19954719 -0.08469442 0.03906325
0001a0 58 f4 07 3d e3 66 c8 bd b6 38 c5 3d 86 5a 67 bd
       0.03319201 -0.09785249 0.096299574 -0.056482814
0001b0 1b 2d 5d bd 75 45 25 be 53 9e 0c bd 53 90 07 3e
       -0.053998094 -0.16139777 -0.034330677 0.13238649
0001c0 0b 8b 3b 3c e0 8e 94 be 64 c0 27 be 20 b2 b1 3d
       0.011446725 -0.29015255 -0.16381985 0.08676553
0001d0 4b 48 e3 bd 3e 34 04 3e cf 5d 22 be 86 0e 07 3e
       -0.11097773 0.12910554 -0.15856098 0.13189134
0001e0 54 a6 45 bb 7a a7 35 be 4b 68 2d be d4 6d 9a bd
       -0.0030158954 -0.17739668 -0.16934316 -0.07540479
0001f0 74 9f c0 3c 71 36 c9 3c f6 2f a9 3d ac 87 85 3d
       0.023513533 0.024562092 0.08261101 0.06520018
000200 b0 8e 84 3b a5 4e 2d bd 2a a2 39 3d d6 57 06 be
       0.00404533 -0.04231133 0.045320667 -0.13119444
000210 8a a2 37 be 9f 07 9d bd d6 65 48 3e b8 8d 7a 3d
       -0.17933097 -0.07667469 0.19570097 0.06117031
000220 08 e9 9e bc 2a 7b 50 bd 11 10 81 bd 11 90 e5 3d
       -0.019398227 -0.05089871 -0.063018925 0.11209119
000230 4b 1b 6c 3e 96 af d8 bc a5 a9 92 3d 15 1a a4 bd
       0.23057286 -0.026450913 0.071612634 -0.08012787
000240 27 77 72 bd 50 97 fa bc 7b e8 c7 bc 65 c5 73 bc
       -0.059195664 -0.03058973 -0.024402848 -0.0148786055
000250 c7 44 ba 3d 3c a8 dd bd e4 81 e9 3d 2a 85 d4 bd
       0.090951495 -0.10823104 0.11401728 -0.103769615
000260 86 fa 8a be a3 37 b0 3c 71 93 b2 3d 2a 51 82 bd
       -0.2714426 0.021510905 0.087195285 -0.06363137
000270 0e aa a6 3a 5e e7 b2 b9 e7 9b 32 3e 6c d2 2c 3c
       0.0012715475 -0.00034123188 0.17442285 0.010548215
000280 57 71 a7 3d 80 b0 95 3d d8 a6 5d bd 64 b8 67 3d
       0.08175915 0.07309055 -0.054114193 0.056572333
000290 55 58 c6 bc 67 7c 0c bd 5a 5a 1d be de 20 73 bd
       -0.024212042 -0.034298327 -0.15366498 -0.059357516
0002a0 d9 d0 da 3d 71 39 06 3e a2 5f 13 be c1 a7 a9 3d
       0.10684366 0.1310785 -0.1439195 0.0828395
0002b0 d9 c3 43 be 3b cb 29 be 53 d8 78 3e d3 2c 6d bd
       -0.19117679 -0.16581433 0.24301271 -0.057904076
0002c0 08 a8 ea 3d e4 ea e3 3d 9c fb a9 3c ec c2 99 bd
       0.11457831 0.11128786 0.02074986 -0.075078815
0002d0 d0 19 9f bd 56 5a dc bc 9b c8 3f bc a7 6a be bc
       -0.07768595 -0.026898544 -0.011705543 -0.023244215
0002e0 c1 9e 93 bd e4 fd 08 3e 4e 42 1b 3e 6b d5 68 be
       -0.07208014 0.13378102 0.15162012 -0.22737662
0002f0 63 4f c4 bd 9c 42 b0 3d 44 a3 1d 3e 06 60 91 bd
       -0.09585454 0.08606455 0.15394312 -0.07098393
000300 de ee e8 3d 76 82 9c 3b 93 b0 ea bd 93 fa 57 bd
       0.11373685 0.0047762943 -0.1145946 -0.0527292
000310 8b 38 1b 3e 5b 6b 86 3d 6b 59 c3 bb 25 6b 08 3c
       0.15158288 0.06563445 -0.005961587 0.0083263265
000320 bf 1c 1c be ce 1e 4b 3d ca ce f4 3d 81 fa 25 be
       -0.15245341 0.049589925 0.119535044 -0.16208841
000330 1e 8d 0a 3d 28 66 1b bd d7 f6 44 3e ab 5b d9 bd
       0.033825986 -0.03793922 0.19234787 -0.106131874
000340 3e d3 6b 3c c4 3b 9f bd 49 01 6e bd 1b e5 38 be
       0.014393626 -0.07775071 -0.058106694 -0.18056147
000350 e2 96 0f bb 0e 05 2e be cb 44 7e bd 36 d0 01 3e
       -0.0021910002 -0.16994116 -0.062077325 0.12677082
000360 20 89 a3 be 8b b8 be bd 03 6d 11 3c f7 00 16 bd
       -0.31940556 -0.093125425 0.008876088 -0.036622014
000370 8d b1 a6 bc 38 79 c2 3c 9e 2d 3c 3e ea fa c4 3d
       -0.020348335 0.023739442 0.18376777 0.096181706
000380 44 3b 97 bd 40 47 09 bc 44 2c 90 bd f0 d4 84 be
       -0.07384351 -0.008378804 -0.07039693 -0.25943708
000390 40 bb 96 bd e4 bb a6 bc d4 af ee bd 2d b7 3b bd
       -0.07359934 -0.020353265 -0.1165463 -0.045828987
0003a0 e2 3b a9 bd 31 2f aa 3e dd 6d 4b 3e 27 bd fb bc
       -0.08263375 0.3323913 0.19866128 -0.030729843
0003b0 d3 02 9b 3d 39 99 24 3e e2 fb 1d 3c 9b bc 2b bd
       0.07568898 0.16074075 0.009642573 -0.041927915
0003c0 ab 0f 87 3c 30 00 ab 3c d2 0d 33 be a9 ce e1 bb
       0.016486963 0.020874113 -0.17485741 -0.006891091
0003d0 d6 a2 db bc e5 93 6b 3e c8 18 12 3e 2c 9e e3 bd
       -0.026811045 0.23005636 0.14267266 -0.11114153
0003e0 0e 60 f4 3d f5 eb 3f 3d 3a d6 fc 3c 31 ad 03 be
       0.119323835 0.046855886 0.03086387 -0.12859036
0003f0 69 64 6d bd bb 6b 8f bd ae 2a 40 3e c9 1b 35 be
       -0.057957087 -0.0700297 0.18766281 -0.1768638

rnn.bias_ih_l0 f4 [384]
000000 a7 e9 2f bc d6 de b5 3d a9 95 56 bc 7f c7 cb 3d
       -0.010736859 0.08880393 -0.013097205 0.0995016
000010 00 8f 0c bd e7 5c 94 3c d0 c6 ad 3d ab 7d fd 3d
       -0.034316063 0.018110706 0.08485186 0.12377485
000020 cd 0a 18 3d ea f4 cb bc f9 30 fe bb 66 9e 86 bd
       0.037119675 -0.024897058 -0.007757303 -0.06573181
000030 ca 32 85 bd eb ef ef 3d 5c b9 bb 3d 3d 02 d0 3c
       -0.06503828 0.117156826 0.09166214 0.025391692
000040 d6 ad 25 bd 96 ec 6b 3a dc a6 2f bc c5 3f a9 bc
       -0.040448986 0.00089997926 -0.010720935 -0.02066029
000050 99 0b ac 3d 9b 47 84 bd a0 e2 be 3d 9d ac c0 3d
       0.084006496 -0.0645897 0.09320569 0.09407923
000060 90 ef bf 3d 65 f8 88 bc 6c bb 45 3d 3e 36 42 3e
       0.09371865 -0.016720006 0.048274443 0.18966004
000070 a5 91 a5 3d 5f 4f 9e 3d 13 f7 b1 3c 26 1e af 3d
       0.0808442 0.077299826 0.02172426 0.08550672
000080 34 12 2c 3e cf e7 01 3e 05 38 1e 3e 93 06 2f 3e
       0.16803819 0.12686084 0.15451057 0.17092352
000090 7c 05 b3 3d 18 e8 0a 3e e1 52 ce bd f1 bb 90 3d
       0.087412804 0.13565099 -0.10074402 0.07067097
0000a0 40 dd ec 3d 29 a1 f6 bc a3 db 3b bd 18 a4 63 3d
       0.115656376 -0.030106144 -0.04586376 0.055576414
0000b0 bc 33 1a 3e 47 43 86 3d ce 71 a9 3d 10 a9 c8 3d
       0.15058798 0.06555801 0.0827366 0.09797871
0000c0 85 da 00 3e 64 32 53 bd 89 d7 c6 3c bd ac 4b 3d
       0.12583359 -0.051561728 0.024272697 0.049725283
0000d0 b9 b7 e5 3b 4a 28 3b bd 43 59 e6 3d 67 fe 03 3e
       0.007010427 -0.04569272 0.11247494 0.12890016
0000e0 aa 80 94 3c 19 29 b6 3d 88 8e 32 bd 9d 4b 27 3d
       0.018127758 0.088945575 -0.04359296 0.040843595
0000f0 88 ce 2d bd 96 4d c0 3d 10 ef 59 3d 29 53 d5 bd
       -0.04243329 0.09389798 0.053206503 -0.10416252
000100 6d af 5a 3e 56 d1 9f 3d eb 7b 45 bd db 8b a8 3d
       0.21355982 0.078035995 -0.04821388 0.082298
000110 c8 f0 da 3c e9 ba 88 3d 53 7f 10 3e 4e 45 c6 3d
       0.026726142 0.06676275 0.1411107 0.096811876
000120 4c fb 3e 3e 24 26 15 3d 7a 57 d8 bc d9 aa 99 3d
       0.1865055 0.036413327 -0.0264089 0.0750329
000130 3c a0 14 3e 9a d8 31 3e 5e 0d f3 3d 09 ec e3 3d
       0.1451425 0.17367783 0.11867784 0.111290045
000140 5f 60 30 3c e5 8a 91 3d 49 df e0 3d 65 6e 1c bd
       0.010765164 0.0710657 0.10980088 -0.038191218
000150 3e 82 5f 3e 44 b9 e0 bc 4a e8 b3 bd ec d2 37 3e
       0.21827027 -0.027432092 -0.0878454 0.17951554
000160 63 26 ba bc 34 e5 35 bc 5f 84 1c bd 51 55 af 3d
       -0.022723382 -0.01110201 -0.038212176 0.08561195
000170 e9 8f a7 3d af d9 4d 3d f7 f2 b1 bc 0e 98 20 3d
       0.081817456 0.050256427 -0.0217223 0.03920751
000180 dc 7f fb 3c f8 47 e2 3c 78 91 15 3d e4 62 bf 3d
       0.030700617 0.027622208 0.036515683 0.09345034
000190 01 4c 0f 3e 43 57 1d bd 0f 10 ce 3d b5 bc 9e 3d
       0.13993837 -0.038413297 0.10061657 0.07750837
0001a0 3f 90 a5 3b dd 39 bc 3d 92 0c 96 3d e7 79 af 3d
       0.005052596 0.09190724 0.07326616 0.08568173
0001b0 d7 72 e5 3d d6 d4 8f 3d 0f 5e d5 3d 37 45 0a bb
       0.112035446 0.07023017 0.10418331 -0.0021098384
0001c0 fc 4e 5d 3d 58 a0 5e 3d c5 c4 e9 bd 9a b8 81 3d
       0.054030403 0.054352134 -0.11414484 0.06334038
0001d0 aa b2 f1 3d 9e 8e 99 3b 3e 12 76 3c d9 b6 ac 3d
       0.118016556 0.0046861907 0.015018998 0.08433313
0001e0 41 ca ab 3d d7 7b e5 3d 26 a6 87 bb 3c 6c be 3d
       0.08388186 0.11205261 -0.0041396795 0.09297988
0001f0 db e3 9f 3d 2b 8d c5 bc 8c b6 ea bc 36 c9 4d 3d
       0.07807132 -0.024115166 -0.028651498 0.050240718
000200 a4 4d 27 bd c9 db a1 be 46 28 cb bd 1c f9 de bc
       -0.04084553 -0.31612995 -0.09919791 -0.027218394
000210 c3 b5 83 3c db 2b 5d bd ec 24 3e ba 71 af db bd
       0.016077882 -0.053996902 -0.00072534266 -0.10726822
000220 0b a8 2c be 5d 5f 57 3d 5c f6 f1 bd 19 33 fa bc
       -0.16860978 0.05258118 -0.118145674 -0.030541943
000230 12 f7 d2 bc 5f 3b 12 be 90 09 74 bd f4 10 07 be
       -0.025752578 -0.14280461 -0.059579432 -0.13190061
000240 8a f3 5c bd 90 a8 5e be ba f7 15 be a2 2d 2f be
       -0.053943194 -0.21743989 -0.14645281 -0.17107251
000250 b6 31 34 be 29 eb fa bd 0c a6 1c be d6 dd 43 be
       -0.17597088 -0.122518845 -0.15297717 -0.19127592
000260 fa 58 f4 bd ec c2 c7 3d b5 d3 c3 bd db 0a 02 be
       -0.119310334 0.09753975 -0.09561864 -0.12699454
000270 d2 f8 9e bd 20 67 05 be b9 62 8b be dc d3 4b be
       -0.077623025 -0.1302762 -0.27223757 -0.19905037
000280 84 18 0b be eb e6 2e be 53 50 b2 bd 5b a6 c1 be
       -0.1358357 -0.17080276 -0.08706727 -0.37822232
000290 65 fd c6 bd a7 3e e8 bc 59 2d 22 bd 11 8b 34 bd
       -0.097163 -0.028350187 -0.03959403 -0.044077937
0002a0 70 e7 86 be b7 6f f6 bc f8 b8 88 bd f3 d1 9a be
       -0.26348448 -0.030082567 -0.06675905 -0.30238304
0002b0 b4 df bd bd 37 35 ed bd bd a9 f3 bd 20 73 75 3c
       -0.092711836 -0.115824156 -0.118976094 0.014981061
0002c0 2e c9 a8 bd 69 e3 f5 3c 89 52 1b bd 9e ea 8b be
       -0.08241497 0.030015664 -0.03792051 -0.27327436
0002d0 0c 9c 9b bc 3e 7e ba bd 4e 90 5a be 88 64 9e bc
       -0.018995307 -0.0910611 -0.2134411 -0.019335046
0002e0 70 c7 e1 bd bc 85 7e be 9e 3f 26 be 0f bc 91 3d
       -0.11024368 -0.24855703 -0.16235206 0.071159475
0002f0 14 96 97 bd 77 43 77 bd fb ef 74 be eb ed 76 3d
       -0.07401672 -0.060367074 -0.2391967 0.06028549
000300 1d 0f c1 bd 3c 6a 20 be 56 7f 7f bd 67 97 5f be
       -0.09426711 -0.15665525 -0.062377296 -0.21835099
000310 1e 6b 99 3d da 38 02 be 94 67 1c bd 5a e0 0c be
       0.07491134 -0.12717 -0.038184717 -0.13757458
000320 b0 7e a7 bd 5b 11 4c bc 55 f8 06 be 63 26 aa bc
       -0.081784606 -0.01245531 -0.13180669 -0.020770257
000330 cc 90 5f bd 32 27 01 be 05 af ca bd c0 06 1b bd
       -0.05458145 -0.12612608 -0.098966636 -0.037848234
000340 77 c3 20 be 7e b9 b8 bd 06 8c 14 3d 5a 7f 3a be
       -0.15699564 -0.09019755 0.03626635 -0.18212643
000350 0f 99 48 be 8b 00 31 3d 73 ed 4e be b5 2c 0d be
       -0.19589637 0.04321341 -0.20207767 -0.13786586
000360 f6 d4 53 be ae 54 81 be d7 9c b4 3c 87 0f 42 be
       -0.20686707 -0.25259918 0.022047443 -0.18951236
000370 0a 4c e4 bd 80 f0 17 be 3d c6 ed bd 0b a3 39 bd
       -0.11147316 -0.14837837 -0.116100766 -0.045321506
000380 e0 23 94 ba c0 17 8f be da 4e d7 3d a6 3f 2b be
       -0.0011302195 -0.27947807 0.105130866 -0.16723499
000390 e7 2b 83 be 16 37 b8 bd 19 29 b6 3d 97 3a a1 bd
       -0.25619432 -0.08994882 0.088945575 -0.07872503
0003a0 b9 4d 1e be f4 85 20 be ba 80 08 be 7e 5c 26 be
       -0.15459336 -0.15676099 -0.13330355 -0.1624622
0003b0 a0 7d f7 bd a0 4d 65 bd c1 c7 74 be a1 c0 e8 bd
       -0.12084508 -0.055982232 -0.23904325 -0.11364866
0003c0 f5 cd 49 be 5f 02 b7 bd 8e 82 46 be d5 75 16 be
       -0.19707473 -0.08935999 -0.1938574 -0.14693387
0003d0 fb f1 8e be 11 c8 4b be ff fd 9c bd 9f bb cf 3c
       -0.2791899 -0.19900538 -0.076656334 0.02535802
0003e0 c6 e4 66 be b9 b7 3a be ea 44 16 be 64 cd 1b be
       -0.22548208 -0.18234147 -0.14674726 -0.15215069
0003f0 da 14 61 be 24 53 81 be 7a 09 78 bb af 09 e7 bd
       -0.2198061 -0.25258744 -0.0037847445 -0.11281144

rnn.bias_hh_l0 f4 [384]
000000 44 13 a0 3d 26 4b bd bc 2b d5 a9 3d d3 40 c1 3d
       0.078161746 -0.023107123 0.08292612 0.09436192
000010 c1 a5 0a 3e 20 e7 98 bd e7 3d 11 3e f5 c6 db 3d
       0.13539793 -0.074659586 0.1418377 0.107313074
000020 19 a4 00 bb 0d 7b a3 3c 04 f4 e5 3d 08 de 9e 3d
       -0.001962906 0.019956136 0.11228183 0.07757193
000030 bc 27 78 bc cd 2e 42 3d 29 ea 82 bd 7b 4a 0c 3d
       -0.015146192 0.047407914 -0.06392319 0.034250718
000040 f1 d8 0f 3d 50 f3 1a 3e 99 4d 12 3d d4 e2 05 3e
       0.035119 0.15131879 0.035718534 0.1307481
000050 26 8c d0 bc 15 a8 57 bd 7e ad 03 3e 3a 76 14 3e
       -0.025457453 -0.05265053 0.12859151 0.14498225
000060 9c c2 54 3c 50 fe 67 bb 9a 74 c7 3d c4 4f 03 3e
       0.012985852 -0.0035399385 0.09739037 0.12823397
000070 30 02 47 bd f8 e4 77 3c 89 72 05 3e 04 f6 81 3d
       -0.04858607 0.015130274 0.13031973 0.06345752
000080 8f 26 4c 3c 25 b8 3f 3e f7 dc a1 3d 99 38 8c 3d
       0.012460365 0.1872259 0.07903474 0.06846733
000090 a0 b4 91 bb 5e 96 0e 3e 9e 0e d7 3c 52 99 49 3d
       -0.004446581 0.13924548 0.026252087 0.049218483
0000a0 b4 73 80 bb dc 6b 70 bd ed 9f 02 bd 34 38 fc 3d
       -0.003920043 -0.058696613 -0.0318908 0.123154074
0000b0 8f e3 0f 3e 12 c1 03 3d 8b ff 10 3d e3 c5 1b 3e
       0.1405165 0.032166548 0.035399955 0.15212207
0000c0 d4 fd 30 3e ad 8c 3b bc f6 c5 d8 3b ed ee 01 3e
       0.17284328 -0.011447114 0.0066153957 0.12688799
0000d0 10 61 e0 3d 89 47 2f 3d 14 0d 33 3d 75 49 f0 3d
       0.10956013 0.04279283 0.043713644 0.11732761
0000e0 39 63 3d bc 58 fa ec 3d 38 f8 91 bc 93 91 66 ba
       -0.011559301 0.11571187 -0.017818555 -0.0008795496
0000f0 a7 d4 92 3c 61 59 23 3e 92 96 c8 bd 0c b1 98 3c
       0.017923666 0.15952064 -0.09794344 0.01863911
000100 47 7c 22 3e 79 51 7f 3d 09 f5 da bb 40 a8 75 3d
       0.1586772 0.062333558 -0.0066820425 0.05997491
000110 db 69 93 3d 48 96 3a 3d 2a a6 1e 3e e1 10 84 bc
       0.07197925 0.045553476 0.15493074 -0.01612133
000120 67 fe 41 3d 19 02 79 ba 4b 8b 88 3d 74 13 d7 3c
       0.047361758 -0.0009498909 0.06667193 0.026254393
000130 bd e4 25 3e 1d ae 3a 3e 9d 74 78 3c dd 30 8a 3d
       0.16200538 0.18230481 0.0151645215 0.06747601
000140 3f 41 c8 3d d6 9e 9e 3d 94 14 ff 3d 50 ac bd 3d
       0.0977807 0.07745139 0.12455097 0.092613816
000150 3c 8c 0b 3e a4 05 86 3d 29 8d ff bd a3 ec 26 3e
       0.13627714 0.065440446 -0.12478096 0.16301207
000160 1c db 22 bc f6 ac d6 3d 4d ef 45 3d d8 01 e6 3d
       -0.009939935 0.104822084 0.048323918 0.112308204
000170 8d aa 1f 3e 15 b4 11 3d 29 d2 d1 3d 12 11 db 3d
       0.15592404 0.03557213 0.10245163 0.10696615
000180 a2 04 4b 3d 2f fc e8 3d 21 fb 2b 3d 1e b7 38 bc
       0.049564965 0.11376225 0.041987542 -0.011274127
000190 10 62 e1 3a 72 3b 6d 3d 51 06 9f 3d 1b 29 4d bc
       0.0017195363 0.05791802 0.07764877 -0.012522007
0001a0 b9 b9 0f 3e e4 2c 26 3e 38 96 1a 3c 47 e3 3f 3d
       0.14035691 0.16228062 0.009435229 0.046847608
0001b0 da c5 03 3e d7 bd 06 3e 36 ef 0e 3e 30 9a 3f 3d
       0.12868443 0.13158356 0.13958439 0.046777904
0001c0 a4 02 0a 3e e2 9b 51 3d d6 77 10 bd 5e 65 6f 3d
       0.1347757 0.051174052 -0.035270534 0.05844628
0001d0 07 8b 6d 3d 29 97 49 3d 11 8f 47 3d 65 c8 98 3d
       0.057993915 0.049216423 0.048720423 0.07460097
0001e0 9e 2f a3 3c 11 eb c2 3d f4 2d 55 3c 66 23 88 bc
       0.019920167 0.095174916 0.013011444 -0.016618442
0001f0 46 43 1e bd 9c a5 0a 3e 90 01 63 3d 0f 44 49 3e
       -0.038638376 0.13539737 0.055421412 0.19654869
000200 ef 5e a6 bd 67 82 b9 be 03 db 2f bd 6a 55 4c bc
       -0.08123576 -0.36232302 -0.042933475 -0.012471536
000210 0e b7 0c be b8 42 a0 3c a2 4d c8 3b a5 9c 08 be
       -0.13741705 0.019563064 0.00611277 -0.13341005
000220 ea dc 19 be 3a fc 6f 3c 07 c5 b7 bd fa d2 f5 bd
       -0.15025678 0.014647538 -0.08973127 -0.12003131
000230 0c 6f ee bc 0c 93 e5 bd 09 9c f9 bd 3c f4 2f be
       -0.029105686 -0.112096876 -0.121879645 -0.17183012
000240 1b 97 12 be bb 05 fd bd d7 1b 4a be ba 34 87 bd
       -0.14315455 -0.123546086 -0.19737183 -0.06601854
000250 e7 b5 74 be ed b6 3b bd 41 a7 5a be 4c d2 6e be
       -0.23897515 -0.04582875 -0.21352865 -0.2332241
000260 d2 f7 68 be 5d ea 96 bc f2 76 24 be 49 53 49 be
       -0.22750786 -0.0184223 -0.16060999 -0.19660677
000270 4a 53 85 bd 04 98 5c be dd 45 8c be be 53 af bd
       -0.06510027 -0.21542364 -0.2739705 -0.085608944
000280 3f 34 25 be d5 62 58 be 26 ec 7f bd a4 2e 65 be
       -0.16133212 -0.21131451 -0.062481068 -0.22381073
000290 28 a8 a3 bd 39 f6 13 bd 25 d4 cf bd 97 29 c1 bd
       -0.07991058 -0.036123488 -0.10147885 -0.09431761
0002a0 d8 09 3f be 55 c1 b8 3d 28 38 5d be 65 71 88 be
       -0.18656099 0.0902125 -0.21603453 -0.26649013
0002b0 1e e3 3a be 87 54 cf bd 27 43 91 bd 2f b4 03 be
       -0.18250701 -0.10123544 -0.070928864 -0.12861703
0002c0 c4 df 8d bd 6f 74 df 3c d5 ac 53 bc 2d 2f 8a be
       -0.069274455 0.0272772 -0.012919624 -0.26989117
0002d0 b4 e0 76 bc d2 f5 01 be cb 2c 05 be 22 ff df bd
       -0.015068222 -0.1269143 -0.13005368 -0.109373346
0002e0 cb 8f 2a be bf 65 1b be 4e c8 8e bd 76 e4 93 bc
       -0.16656415 -0.15175532 -0.06971799 -0.018053275
0002f0 8d 05 eb bd c4 a7 de bd 1a f5 95 be 66 41 3d 3d
       -0.11475668 -0.108718425 -0.2928856 0.046204947
000300 f7 98 ba bc 9d 00 7f be 50 f5 81 bd 2f e9 62 be
       -0.022778017 -0.24902578 -0.06345618 -0.22159265
000310 b5 3b 69 bc b4 10 50 be d2 26 2f be 27 55 6e be
       -0.014235427 -0.20318872 -0.17104653 -0.2327467
000320 c8 0a 7f bd 3a d5 f2 bd 59 f8 a2 bd a7 b0 31 be
       -0.06226614 -0.11857076 -0.07957525 -0.17352544
000330 09 d9 1d 3d 32 c6 6a be 6e df c6 bd ed 61 f5 bd
       0.03853706 -0.22927168 -0.097105846 -0.119815685
000340 c1 e9 6c be e4 60 ed bd f0 b8 ba ba ed 2d 79 be
       -0.23136045 -0.11590746 -0.001424579 -0.24333926
000350 86 1d 1b be e0 c8 8e bd 93 57 1a be b1 c7 46 be
       -0.15147981 -0.069719076 -0.1507247 -0.19412114
000360 9d bf 5d be 16 df 7f be 07 f6 ac bc 0c 39 0d be
       -0.21655126 -0.24987444 -0.021113409 -0.13791293
000370 2a 03 88 be 2d 11 47 3c 08 54 d6 bd 03 ba 90 bd
       -0.26564914 0.012150091 -0.104652464 -0.07066729
000380 69 c1 d2 bd 89 02 8a be 45 c4 f6 bb bf 9d 4d be
       -0.10290796 -0.2695506 -0.0075307214 -0.20079707
000390 7b 3d 5f be b3 9d 18 be cd 8e a1 3d e5 97 d4 bd
       -0.21800797 -0.14903907 0.07888565 -0.10380534
0003a0 8c aa 40 be ef 16 de bd 01 f7 c9 bd a5 d3 44 be
       -0.18815058 -0.10844218 -0.098615654 -0.19221361
0003b0 3d 16 b7 bd 5b 61 35 bd 38 f1 24 be 81 13 89 bd
       -0.089397885 -0.0442823 -0.16107643 -0.06693173
0003c0 18 a8 cc bd 74 a7 14 be 2f c1 28 be e2 68 1c be
       -0.09992999 -0.14517003 -0.16479944 -0.15274385
0003d0 ee b7 6e be 94 b7 0a be 27 96 2a be 9e 89 42 bd
       -0.23312351 -0.13546592 -0.16658841 -0.047494523
0003e0 c7 b1 14 be b8 e2 33 be 36 44 63 be b0 e2 80 be
       -0.14520942 -0.17566955 -0.22193989 -0.2517295
0003f0 0f 37 59 be 3e 26 e3 bd ee 45 33 bd 37 0b f9 bc
       -0.2121241 -0.110912785 -0.043767862 -0.030400855

rnn.weight_ih_l0_reverse f4 [384, 50]
000000 a6 84 73 3e 6b 7e 97 3c 3e bc 32 bd 43 eb 9e 3d
       0.2378107 0.018492898 -0.043636553 0.07759716
000010 10 ab b0 3d 98 04 60 bd dc c8 66 be 62 31 26 3c
       0.086263776 -0.05469188 -0.2253756 0.01014361
000020 00 ba 63 3d af 03 b7 3d c4 d7 a8 bb 99 b1 13 3e
       0.055597305 0.089362495 -0.0051526744 0.14423217
000030 40 70 15 bd 20 e0 3c 3d a2 8a 7a bd 17 7e 3b be
       -0.036484003 0.04611218 -0.061167367 -0.18309818
000040 88 8b 86 bd ce 6c 6e bd 3c 8b 61 3d 1e d6 d6 bd
       -0.06569582 -0.058209233 0.055064425 -0.10490058
000050 00 95 89 3d f4 bb ec bd 04 73 f8 3a ac 3f 0b be
       0.067178726 -0.11559287 0.0018955176 -0.13598508
000060 ca 4e 6e bd 28 6e 00 bc 86 77 97 3d 85 31 70 3d
       -0.058180608 -0.007838763 0.07395844 0.058640976
000070 d1 c9 64 bb 0c 6d 87 bc 5c 55 5b bd 6a 7a b7 3d
       -0.003491033 -0.01653149 -0.053548202 0.089588955
000080 bb bf e5 3d 51 88 3e be 08 16 f8 bd 9d ca 28 be
       0.1121821 -0.18606688 -0.12113577 -0.16483541
000090 9e 5f 19 3d 5c df b1 bd 33 92 0c be fe 87 97 be
       0.037444703 -0.086851805 -0.13727646 -0.2959594
0000a0 28 f4 1f bc 47 6d 72 bd 78 af df 3b 8e db cf bc
       -0.009762801 -0.059186246 0.0068263374 -0.025373247
0000b0 51 1c ce bc 28 f7 f4 3d 89 46 6c 3c e0 9c 85 bc
       -0.025159987 0.11961204 0.014421114 -0.016310155
0000c0 4d 82 0b 3e 4c 4f 8e 3c 47 86 52 bd 9b fe 78 3c
       0.13623925 0.017371796 -0.051397588 0.015197421
0000d0 8d fd 8a bd 6c 6c de bd a7 a5 01 3e 81 3e 67 bd
       -0.06786642 -0.108605236 0.12660848 -0.056456093
0000e0 bd 42 34 3e 65 c6 bc bd 19 7d f9 bd 16 77 34 bd
       0.17603584 -0.09217528 -0.121820636 -0.04405888
0000f0 af 77 23 3e 05 fd 82 bd 1d 56 b6 3d 16 c3 1e be
       0.15963624 -0.06395916 0.089031436 -0.15504107
000100 29 74 8e 3d 09 42 4f be b4 36 f2 bd c1 b2 2e be
       0.069557495 -0.20240034 -0.1182684 -0.17060377
000110 4f e4 cf bd ea f8 26 bd 61 76 d3 be 8c ef 27 3e
       -0.10150968 -0.040764727 -0.41301253 0.16399974
000120 b1 d2 df 3d 39 9d 1e be c6 f9 f3 bd dd 68 b0 3c
       0.10928858 -0.15489663 -0.11912875 0.021534378
000130 47 41 cb 3d 0d ae 09 3e 91 a6 82 3c 69 c3 86 3e
       0.0992456 0.13445301 0.015948566 0.2632096
000140 bf 10 64 be 68 e3 6d 3d 77 4b fb 3d 9d 2e 16 3e
       -0.22272013 0.0580782 0.12270253 0.14666219
000150 24 a1 13 3e 72 ff e6 bc 98 a4 68 3e 6b 20 a4 3d
       0.14416939 -0.028197978 0.22719038 0.08013996
000160 8f 52 33 be 25 05 24 3e 98 48 d9 bd 3e 2a 02 3e
       -0.17511962 0.16017587 -0.10609549 0.12711427
000170 af 89 c6 be 5a 4a 00 3e 4f 66 83 3e 1a 11 d3 3d
       -0.3877692 0.12528363 0.25663993 0.10305996
000180 b6 1e 24 bc 42 06 83 be c8 a2 80 3e 76 55 85 3d
       -0.010017088 -0.25590712 0.25124192 0.06510441
000190 f1 0b 13 3d e6 00 20 3c 4c 84 df bd b3 87 ce 3c
       0.03590006 0.009765839 -0.109139055 0.02521119
0001a0 f8 15 8d 3e ef a0 15 bd e7 f9 86 bd e3 1e 96 3d
       0.27555823 -0.03653043 -0.06590634 0.0733011
0001b0 fa 8a e6 3c a8 ff 2f 3e 67 b9 0c 3e 4c 95 5c bd
       0.028142441 0.17187369 0.137426 -0.053853318
0001c0 47 76 0f bd 19 c7 ef 3d 39 42 c1 3d 64 8c ff bd
       -0.035024907 0.11707897 0.09436459 -0.12477949
0001d0 0e bf 42 be ee b3 52 bd 7a 84 2d 3d 49 02 ff 3d
       -0.19018194 -0.051441126 0.042362668 0.12451608
0001e0 c1 79 c7 3d 64 db 35 3e 60 cd 9c bd bb 39 df 3d
       0.097400196 0.17759472 -0.0765636 0.10899683
0001f0 4a f0 73 3c 91 4f 09 3d eb 07 b0 bd ae aa 01 be
       0.014888832 0.033523146 -0.0859526 -0.12662765
000200 a0 f0 ac bd 9c c0 8a be b0 f8 cd bd 5c eb b4 3d
       -0.08444333 -0.27100074 -0.10057199 0.08833954
000210 ae 84 aa 3d 5c 55 f0 bd 6e 68 19 3e 87 98 ef bd
       0.08326088 -0.11735031 0.14981243 -0.11699014
000220 bf a4 d3 3d 35 3d b2 3d 10 11 4b be b5 0b ea bd
       0.10334157 0.087030806 -0.19830728 -0.11428014
000230 d8 2e a0 3b ad 9c 90 3e 0a 33 f8 bc 78 85 8d bc
       0.0048883967 0.28244534 -0.030297775 -0.017275557
000240 d5 fe 01 3c 8d c9 ee bd e1 bc ce 3b aa 87 e7 bc
       0.007934292 -0.116595365 0.006309137 -0.028262932
000250 c8 f3 2e 3e 3a 54 b2 bd 2a 29 67 be 0b f5 3d 3e
       0.17085183 -0.08707471 -0.22574297 0.18550508
000260 e5 46 f1 3d c1 7b 30 3d 2c 78 96 3d cb d8 76 3d
       0.117811 0.04308677 0.0734714 0.060265344
000270 ac 9a c8 bd cb 89 24 bc 81 d0 31 bc d3 26 c9 3d
       -0.09795126 -0.010042618 -0.010852934 0.09821858
000280 d8 df 3f bd c0 11 8c bc 84 98 9a 3e ca ee 54 3d
       -0.046844333 -0.017098308 0.30194485 0.05198554
000290 cb a3 57 3e b4 d2 06 3e 45 5b 80 3d 38 09 96 3d
       0.21058576 0.13166314 0.06267408 0.07325977
0002a0 9e c5 a5 3d 85 9b 01 bd dc b3 63 3e 6c bc 79 bc
       0.08094333 -0.031642456 0.2223658 -0.015242677
0002b0 c3 2b 16 be 6e a9 64 be a8 d3 09 3d b7 2c 1e 3d
       -0.14665131 -0.22330257 0.033649117 0.038616862
0002c0 01 af 0b be 2a fc 1c 3d 1b ab 14 be 94 de 0e be
       -0.13640977 0.03832642 -0.14518397 -0.13952094
0002d0 a2 46 4d 3d 38 1e 89 be 12 96 cb 3d 20 c3 de 3d
       0.05011619 -0.26780868 0.09940733 0.10877061
0002e0 86 ff 26 be 0b bc 08 3d cb e7 0e bd 56 02 61 3e
       -0.16308412 0.033382457 -0.034889024 0.21973547
0002f0 43 c4 83 be f6 cd 2c 3d f8 8b 6c bd 57 20 0c 3e
       -0.25735673 0.042188607 -0.057750672 0.13684212
000300 81 72 35 bd f5 09 25 bd 5c 73 a8 bd f0 7c db bd
       -0.044298653 -0.0402927 -0.08225128 -0.10717189
000310 a8 f4 b9 3d cb bc 8d bd 88 af b3 bd 13 01 7f bd
       0.090798676 -0.06920775 -0.08773714 -0.062256884
000320 fa a8 41 3b b8 dc a0 3e 2d 27 9e 3d ec 45 85 bd
       0.002955018 0.31418395 0.07722316 -0.06507477
000330 59 52 99 bc 75 02 27 3e c8 40 85 3d 43 86 8e be
       -0.018716024 0.16309531 0.06506497 -0.2783681
000340 8e 2a 7c be 43 62 2f be d7 f2 e1 3c 53 76 84 3d
       -0.24625608 -0.17127328 0.027581615 0.06467881
000350 6c 9e a4 be 53 a0 8c 3e 4d f6 34 bd 73 92 85 3d
       -0.32152116 0.27466068 -0.044180203 0.065220736
000360 bb 1a bb bd 03 14 90 3e 83 cb 0e be a8 ce 29 bd
       -0.09135958 0.28140268 -0.13944821 -0.04145685
000370 b4 f6 bd 3d 82 c1 ef bd dd f1 32 3b 73 15 06 be
       0.092755705 -0.117068306 0.0027304806 -0.1309412
000380 2f 3c 0b 3e aa ce b4 3e 9b 09 46 3e 4f 6f 06 bd
       0.13597177 0.35313922 0.19339602 -0.032820996
000390 5e 92 32 3d 24 f6 7a 3e d5 21 95 3e 38 3b 13 bb
       0.043596618 0.24507958 0.29127374 -0.0022465717
0003a0 c9 2e 52 be dd 5f 1b be 91 02 db 3d 81 f5 8e bd
       -0.2052566 -0.15173288 0.10693849 -0.0698042
0003b0 33 6c 66 3e b1 0d ac be 10 9e 7f be 27 ec e9 3d
       0.22502212 -0.33604196 -0.2496264 0.114219956
0003c0 04 e5 15 bd ad 86 36 bd cf 3b 02 3e 1c 44 b0 3d
       -0.03659536 -0.04456203 0.12718128 0.08606741
0003d0 8f 90 af 3d 47 f7 ea be cb 59 3e be 8c 18 de bd
       0.08572494 -0.45891783 -0.18588941 -0.10844526
0003e0 ac 6f cb 3d a8 8d 2e bd 4e da e0 bd fe 4c f3 bd
       0.09933409 -0.042615563 -0.10979138 -0.118799195
0003f0 34 27 ee 3d bd 13 79 ba 8d 71 3f bd ab 59 67 3e
       0.11628571 -0.00095015374 -0.04673915 0.225928

rnn.weight_hh_l0_reverse f4 [384, 128]
000000 0a 74 56 38 74 51 31 be 48 22 08 bd 7b b7 2b be
       5.1129646e-05 -0.17316228 -0.03323582 -0.16769211
000010 39 cf 8e 3e 00 40 95 bd 08 50 6d be 95 b5 e6 3c
       0.27892473 -0.07287598 -0.23175061 0.028162757
000020 9f 0c 2c bd 26 0e ff bd e8 79 7f 3e a2 2d 12 3e
       -0.042004224 -0.124538705 0.24948847 0.1427522
000030 64 66 9f bd 8b 79 aa 3d 52 7e 1d 3d 0d 2e 54 3e
       -0.07783201 0.08323964 0.038450547 0.20720692
000040 98 0d 6f bd b4 23 c6 3c 5a 52 ed bd 83 05 b2 3d
       -0.058362573 0.024186946 -0.11587973 0.086924575
000050 f0 97 1d be d7 06 e1 bd 21 8d 53 3e 3f 2f 7a 3d
       -0.15389991 -0.10987633 0.20659305 0.061080214
000060 09 55 2f 3d 2f d8 6c 3d d5 31 ba 3d 1a 75 90 bd
       0.042805705 0.057823356 0.09091536 -0.07053585
000070 c3 6f de ba c1 b1 06 3e 0e 36 e9 bd c7 42 45 bd
       -0.0016970563 0.13153745 -0.11387263 -0.048159387
000080 44 e9 ea bb 24 ae b6 3e 46 01 10 be 96 04 27 be
       -0.0071689207 0.35679734 -0.14062986 -0.16310343
000090 5b e7 07 3e a7 28 9d bd 49 5b 0c 3e 50 1e 06 be
       0.13271849 -0.076737694 0.13706698 -0.13097501
0000a0 68 30 a1 3d 4b 48 2c 3d 5e 3b 42 be 95 c0 d4 bd
       0.07870561 0.04206113 -0.1896796 -0.103882946
0000b0 8d b8 ac bc d4 35 e8 bd cd 6f c3 be 04 3d 3b 3d
       -0.021084094 -0.11338392 -0.38171235 0.045712486
0000c0 62 2f 64 3e f9 6b af 3b 28 81 26 3d ce 27 04 3d
       0.222837 0.0053534475 0.040650517 0.032264523
0000d0 ff d6 2d be f2 9f ae 3c 4b 90 11 3e c8 26 7a bd
       -0.16976546 0.021316502 0.142152 -0.06107214
0000e0 09 e6 ff bd a4 ac 2b be ed 15 4c 3e 8d 92 71 3d
       -0.124950476 -0.16765076 0.19930239 0.058977652
0000f0 dd 67 71 be 3a d9 54 3e 91 64 b5 bd a7 81 c9 bc
       -0.23574777 0.2078599 -0.08857072 -0.024597956
000100 cc 3b 8e be aa 62 0b be 97 73 be bc c5 2e 70 3d
       -0.27779996 -0.13611856 -0.023248477 0.058638353
000110 72 b3 10 3e e1 15 0c 3e 58 16 66 3d f0 de 40 bd
       0.14130953 0.13680221 0.056173652 -0.04708761
000120 0c ce ca bc 18 40 41 be 49 78 03 bd 42 e7 7d be
       -0.024756454 -0.18872106 -0.032097135 -0.24795249
000130 da 88 b9 3d c1 52 32 3e 86 51 8f 3c 91 d2 aa 3d
       0.090593055 0.1741438 0.017494928 0.083409436
000140 ca 2d d7 bc 1a 6b 44 bd d1 74 ae bd 5d e5 3d bd
       -0.026266951 -0.047953703 -0.08518375 -0.046361316
000150 4a a3 d6 bd 8e 33 78 3c 96 ba c8 bd be f4 49 bd
       -0.10480364 0.01514901 -0.098012134 -0.04930567
000160 4b 26 79 3e 9d c6 29 3e c8 3d 3e bd 03 00 d8 3c
       0.24331014 0.16579671 -0.046445638 0.026367193
000170 17 2e af 3d ed c1 eb bd c7 08 87 3d f1 47 00 be
       0.08553713 -0.11511598 0.06593471 -0.12527443
000180 1b 61 3e be c9 55 20 be 71 f6 99 bb 04 c4 2e be
       -0.1859173 -0.15657724 -0.0046985676 -0.17066962
000190 04 77 15 bd 91 76 1c bd b8 5f 2a bd a5 d2 21 be
       -0.036490455 -0.03819901 -0.04159519 -0.15803011
0001a0 b1 81 e1 3c 74 d3 96 3e 83 b5 11 be 1a 0e 3c bd
       0.027527662 0.294582 -0.14229397 -0.045911886
0001b0 e8 49 a7 bd 52 d2 b7 3d c7 c1 38 3d 99 db 73 3c
       -0.081683934 0.08975662 0.045106675 0.014883899
0001c0 c2 4b bd bd 32 ee b5 be 1a 64 bc bd 67 00 00 3c
       -0.09242965 -0.3553329 -0.0919878 0.007812596
0001d0 57 39 26 bd 73 62 22 bc 6b ba 45 3e d7 81 73 3d
       -0.040582027 -0.009911167 0.19309394 0.059449997
0001e0 0b 78 94 3d d0 2a 09 be dc 49 4b be 65 66 dd 3d
       0.07249459 -0.13395238 -0.19852394 0.10810546
0001f0 a2 61 22 bd 54 0e 2c 3d 53 64 35 3d 51 48 82 be
       -0.03964389 0.042005852 0.04428513 -0.25445798
000200 d7 0c b5 bd ec 10 f0 bd f0 d0 dc 3d 9a c4 92 bd
       -0.0884034 -0.117219776 0.10782039 -0.07166405
000210 dd 1a 78 3d 85 be 01 be 68 7c 3a 3d 8f e6 84 be
       0.060572494 -0.12670334 0.0455288 -0.25957152
000220 f6 ac 85 3d 88 cf 27 be f8 54 d7 3d a7 6d 6a bd
       0.0652713 -0.1638776 0.105142534 -0.05723348
000230 d5 93 08 be 38 2a 11 3e e1 8c 53 3c cc a0 0f 3e
       -0.13337643 0.14176261 0.012912006 0.14026183
000240 6b 37 28 3e ac 37 0b bb ae ec 00 bd 5e 97 ef 3c
       0.1642739 -0.00212429 -0.031475715 0.029246982
000250 15 8e ea bc 7c be 08 bd de 63 03 3e 13 13 13 3e
       -0.028632203 -0.033384785 0.12831065 0.14362745
000260 24 24 b8 bd 58 90 88 3d 79 db 85 be 8a 3d 3a 3d
       -0.08991268 0.066681564 -0.26144007 0.045468844
000270 59 f3 10 be 8e be 18 3e 0a fa 4b 3e 29 bb 30 be
       -0.1415533 0.14916441 0.19919601 -0.17258896
000280 d7 28 f8 3d 7f 82 85 3e 44 f9 8e 3d 66 40 e7 3d
       0.121171646 0.26076123 0.069811374 0.1129158
000290 6d 79 70 bd 15 f3 ac bc d7 43 a8 3e 64 57 10 bd
       -0.05870955 -0.021112004 0.32864258 -0.035239592
0002a0 58 70 36 3e d0 f8 bf bb 9c 38 81 3c d2 8c df 3c
       0.17816293 -0.005858518 0.015774064 0.027288828
0002b0 a8 53 05 be 7a c6 01 be 34 ea 8e 3d 7e 01 2a bd
       -0.13020194 -0.12673369 0.069782645 -0.04150533
0002c0 ab 24 8b 3d b0 6f 91 bc 44 eb 37 3e e0 ee 96 3d
       0.06794103 -0.017753452 0.1796084 0.073697805
0002d0 1f 51 a6 bc 9d 73 29 3e 22 9b 95 3d ae c2 d9 3d
       -0.020302353 0.16548009 0.0730498 0.10632835
0002e0 ec 42 aa bd 93 7d 96 be 68 88 a9 bd 6a da 8b 3d
       -0.083135456 -0.2939268 -0.082779706 0.068287686
0002f0 01 6e 15 be fa 6d 23 3c dc ea f2 bc 94 c3 69 3e
       -0.14592744 0.009974951 -0.029653005 0.22828513
000300 94 4a 16 bd c6 43 c0 bc b6 31 29 3d ac 4c 40 3d
       -0.036692217 -0.023469817 0.041307174 0.04694812
000310 2f ad e0 bd 38 5a 97 3c 47 f3 8c 3e 6b 8d 95 3d
       -0.10970532 0.018475637 0.27529356 0.07302364
000320 ef aa 78 3e 63 61 20 be fc f8 0d 3e 23 53 85 be
       0.24283956 -0.1566215 0.13864511 -0.2603999
000330 18 cf 62 3e d5 bc 45 be cb d0 0f 3e 98 c5 05 be
       0.22149312 -0.19310315 0.14044492 -0.13063657
000340 c4 7c e3 3b 0d e5 28 3e b0 25 40 3e 55 c3 db bd
       0.0069423635 0.16493626 0.18764377 -0.10730616
000350 88 57 df bd ec 47 84 bd 7f 2f b1 bd 82 33 4d be
       -0.10905367 -0.064590305 -0.08651637 -0.2003918
000360 7c 49 f8 bd 7b 43 f8 bd 90 30 6d 3e 29 50 44 3e
       -0.12123391 -0.12122246 0.23163056 0.19171204
000370 1a da ee 3c 4f f3 44 be 2d 4e dc 3d 5e 49 1c bd
       0.029156733 -0.1923344 0.10757098 -0.038155906
000380 7c 69 3c 3d 80 d9 04 be 1e ab 46 be 01 4e d8 3b
       0.045999035 -0.12973595 -0.19401214 0.0066010957
000390 60 ee f5 bd 80 a0 36 be f5 62 af bd f0 6a 5c 3c
       -0.12008357 -0.17834663 -0.085637964 0.01345323
0003a0 fb b8 9a bb c3 3f 20 3e 12 68 6c bd 80 4e f3 bd
       -0.0047217584 0.15649323 -0.057716437 -0.11880207
0003b0 96 55 31 3e 49 3a b8 3e 7e 00 95 3e ce 01 18 3e
       0.17317805 0.35981968 0.29101938 0.14844438
0003c0 ea 55 db 3d cb d3 be bd f2 4e d6 3b c1 5c ba bc
       0.10709746 -0.0931774 0.0065401727 -0.022749307
0003d0 3c 8c aa bd f7 b5 7f bd 6d 35 8d 3d 03 42 cf 3d
       -0.08327529 -0.062429395 0.06894956 0.101200126
0003e0 fb d2 dc 3d 30 1d d5 3d 0d b7 a0 be 8e 55 8f 3e
       0.10782429 0.10405958 -0.31389657 0.2799496
0003f0 f2 b9 db bd 04 a0 dc 3d 5e 36 d5 3c 5f 96 89 3d
       -0.10728826 0.10772708 0.0260269 0.06718134
